Model_Train/runs/detect/train7/weights/best.pt (torch, 548070 bytes, 281 tensors)

weight f2 [8, 3, 3, 3]
00000000: 11a4 952d 9fb1 ecb0 b8ad c728 eca1 8430
00000010: cea6 9d28 acac 60aa 53b2 8eb0 b5ad f799
00000020: 0f2c df2e 73ae 75ab e62d 2032 81a2 7231
00000030: 451a 4e2a 8932 c2b1 09b0 3aaa a5ab b131
00000040: dfae cbab e9ae beb0 d0af eb30 e42c 492e
00000050: 2e22 02ae 4e2a 47b1 d2af 12ad 6230 f42f
00000060: fda9 b526 e530 a233 bb2f 6c2c 6a2f 54b0
00000070: 0c1e e2b0 a7b0 c4af 282d 2e2c 4db0 d12b
00000080: 132e 2aaa 0424 5229 912e fb31 f0b0 9aad
00000090: 482c 7c30 7930 4231 0e26 1bb2 e114 8fb0
000000a0: a2b2 df31 2a31 7cb1 c329 8ba5 a0a3 ccac
000000b0: bb2d ebad 242e 2f30 9a31 b42e d2b0 0ead
000000c0: 9330 352e 67ad acaf 6831 692f b4ae beac
000000d0: ccb2 2ea4 23b1 62b1 18a6 0d24 53ad d82d
000000e0: 65b0 5831 a32e 10b2 18ac efa6 949b d627
000000f0: f227 80a7 21af e629 35b3 59b0 f2a8 10ae
00000100: 4eac 1eb1 71aa 5429 04b0 aea4 4930 e7a5
00000110: c220 249e ed28 2530 4132 fe2f 3832 451b
00000120: 52b2 efae 1b2f 24a4 99ae 0ab1 00b2 21b1
00000130: 38a9 1030 7630 97b0 6e30 84af d698 c0ab
00000140: d899 5915 6eb1 feb1 81ab 771d 25af f529
00000150: 00b2 b2aa 3830 25b0 062f 4d95 22b3 5a2b
00000160: 9aad 87b0 402d 41b3 0d22 37ab 0230 b628
00000170: 572c 622a c3ac cbac 0fb2 382e bf30 2c30
00000180: e7b0 4398 7fb0 1eb0 19b0 dc2a b6af 849d
00000190: b621 c52f 79b0 a2af a0ae bc30 5aaa 6631
000001a0: d92c 7a27 449d 14a9 e325 65aa 2aa0 0124
-0.01588 0.0872 -0.1757 -0.1538 -0.08936 0.03732 -0.011566 0.1411
-0.02658 0.03604 -0.073 -0.0498 -0.1976 -0.1423 -0.0892 -0.002913
0.0634 0.10736 -0.10077 -0.05826 0.09216 0.1914 -0.0127 0.1702
0.003061 0.04926 0.2042 -0.1799 -0.1261 -0.04865 -0.05972 0.1779
-0.10736 -0.06088 -0.108 -0.1482 -0.1221 0.1537 0.0764 0.0982
0.01207 -0.0939 0.04926 -0.1649 -0.1222 -0.0792 0.137 0.12427
-0.04678 0.0262 0.153 0.2385 0.1208 0.0691 0.11584 -0.1353
0.005905 -0.1526 -0.1454 -0.12134 0.08057 0.0653 -0.1344 0.06107
0.0949 -0.04816 0.01569 0.04156 0.1026 0.1869 -0.1543 -0.0875
0.0669 0.1401 0.1398 0.1643 0.02365 -0.1908 0.001191 -0.1425
-0.2073 0.1835 0.1614 -0.1714 0.045 -0.02165 -0.01489 -0.07495
0.08954 -0.09247 0.09595 0.1307 0.175 0.10474 -0.1506 -0.079
0.143 0.097 -0.0844 -0.1199 0.169 0.1158 -0.10474 -0.0741
-0.2124 -0.01633 -0.1605 -0.1682 -0.0238 0.01582 -0.0832 0.0913
-0.1373 0.167 0.1037 -0.1895 -0.06396 -0.02708 -0.0037 0.03061
0.03104 -0.0293 -0.1114 0.04608 -0.2252 -0.1359 -0.03864 -0.0947
-0.06726 -0.1599 -0.05032 0.04163 -0.1255 -0.01828 0.1339 -0.02306
0.00929 -0.005997 0.03848 0.1295 0.1954 0.1249 0.1943 0.00355
-0.1975 -0.10834 0.111 -0.01617 -0.1031 -0.1575 -0.1875 -0.1603
-0.04077 0.127 0.1394 -0.1434 0.1384 -0.11743 -0.002361 -0.06055
-0.002853 0.001306 -0.1697 -0.1873 -0.05862 0.005337 -0.11163 0.04654
-0.1875 -0.0523 0.1318 -0.1295 0.10974 -0.001294 -0.2229 0.05743
-0.0875 -0.1415 0.08203 -0.2267 0.01182 -0.05637 0.1252 0.0368
0.0678 0.04987 -0.0744 -0.0749 -0.1893 0.09717 0.1483 0.1304
-0.1532 -0.00208 -0.1405 -0.1287 -0.128 0.0536 -0.1205 -0.005386
0.011154 0.1214 -0.1398 -0.11926 -0.1035 0.148 -0.04962 0.1687
0.07574 0.0292 -0.005142 -0.03967 0.023 -0.04996 -0.00813 0.01564

weight f2 [8]
00000000: 413c c23b 083c cc3b de3b bf3b 0a3c fd3b
1.063 0.9697 1.008 0.9746 0.9834 0.9683 1.01 0.9985

bias f2 [8]
00000000: 9a3b 7bbf 25b5 b0a9 4122 ddb5 ae36 e2b7
0.95 -1.87 -0.3215 -0.04443 0.012215 -0.3665 0.4175 -0.4927

running_mean f2 [8]
00000000: afa0 b5a6 a4aa 4da7 ccb6 baa2 d5b8 bfad
-0.00915 -0.0262 -0.05188 -0.02852 -0.4248 -0.01314 -0.604 -0.0898

running_var f2 [8]
00000000: 731a 041e fa1b f11b 7326 cb1c b82a c11a
0.003149 0.005875 0.003895 0.003878 0.02519 0.00468 0.0525 0.003298

weight f2 [8, 8, 3, 3]
00000000: 46ae 68ac 832d c9ae aca6 df2e 6728 059e
00000010: 3cae bf25 39af caab 2bac fba8 7da4 942c
00000020: 2aa1 602d 202c f4ac 2628 efac 00a9 e824
00000030: 7329 af2d 5faa bfa4 7e29 14b0 4d2c 2aaf
00000040: 41a1 dea6 55ac e11e 0f2e cba8 cdac 16aa
00000050: d0af e629 d8ab 70ad edac 712d 762c 1a2e
00000060: e52b a3a7 b6a6 072b e52e 1329 4aad ceac
00000070: 61b0 f59e c9ad 47b0 272c cfae eda9 0593
00000080: 96a6 12ae 4faf 7e2c a01c 5c2e 03a9 7328
00000090: e9ae bbac 99b0 41a8 baa6 9bac 3dad 1eb0
000000a0: 3e25 95af 4e25 caac c8ad 559e 2bae 999d
000000b0: ad98 7faf 5a21 f529 522a 48a8 30af f1a3
000000c0: df24 98ab 2f2a f126 6ead 06a2 9826 4923
000000d0: c825 689a e1ac 5927 1f2c c52d cb2c b624
000000e0: a42b 1ca8 9dad 82ad f230 152f a3a9 6e2d
000000f0: 7e2e 3b30 c62f 542d 25a8 33a9 dc2d a02b
00000100: a5ac 9a2e d72a 522c a4ac 6828 fca7 6e2d
00000110: 56a6 c429 0724 052b eda6 be28 bcad 3b28
00000120: bda8 23ad 12ab 8530 8d2e ff30 c42e 01ae
00000130: 4cab c624 2da9 482f 64ab 22a7 a5ad 58a9
00000140: c62f a12f a22e 2e30 c630 92a3 f82d a030
00000150: 3e2c 1c31 a52e 5729 99ab b926 46a8 f1a8
00000160: f7ad 1fa9 d6aa 652e be2c 9ea7 d5ac e62a
00000170: bb28 c1a4 c4ac 162d 4f28 9cab 1231 8c30
00000180: 49a8 ef2d cea7 71a3 a72f 9b28 9da4 f81f
00000190: 2520 0825 a328 4130 4829 8faa ed26 fd2a
000001a0: 812b 08ae c8a8 e3ad 8ca9 652c 3aac 462c
000001b0: bb2c 98a1 baac 98ae 6ea5 d5af 3414 33b1
000001c0: c9b0 3fb0 9ea9 e02a 4bb0 ce2c 77ac ca1d
000001d0: 9ba4 0cb0 222f 1c2d 5e30 332d 1ba9 6730
000001e0: 9928 972e 94ab d8aa bdaf e1aa 2f28 51ac
000001f0: 1c2b 432d 9f2b cfa9 cfae 31aa 182b 7f2f
-0.098 -0.06885 0.0861 -0.106 -0.02606 0.10736 0.0344 -0.00588
-0.0974 0.02245 -0.11285 -0.06085 -0.0651 -0.0389 -0.01753 0.07153
-0.010086 0.084 0.06445 -0.0774 0.0324 -0.0771 -0.03906 0.01917
0.04257 0.0888 -0.04977 -0.01854 0.0429 -0.1274 0.0672 -0.11194
-0.01026 -0.02682 -0.0677 0.006718 0.09467 -0.03745 -0.075 -0.04755
-0.1221 0.04608 -0.06128 -0.08496 -0.07697 0.085 0.0697 0.09534
0.06168 -0.02983 -0.02621 0.0549 0.1077 0.03964 -0.08264 -0.0751
-0.1368 -0.006794 -0.0904 -0.1337 0.0649 -0.1064 -0.0463 -0.000857
-0.02573 -0.09485 -0.1142 0.0702 0.004517 0.09937 -0.03915 0.03476
-0.108 -0.0739 -0.1437 -0.03323 -0.02628 -0.07196 -0.08185 -0.1287
0.02048 -0.11847 0.02072 -0.0748 -0.09033 -0.006184 -0.0964 -0.005466
-0.002283 -0.1171 0.01045 0.04654 0.04938 -0.03345 -0.1123 -0.01551
0.01903 -0.05933 0.0483 0.02711 -0.08484 -0.011765 0.02576 0.01423
0.02258 -0.003128 -0.07623 0.0287 0.0644 0.09015 0.0749 0.0184
0.0597 -0.0321 -0.0877 -0.08606 0.1545 0.11066 -0.04404 0.08484
0.10144 0.1322 0.12146 0.08325 -0.03238 -0.04062 0.09155 0.05957
-0.0726 0.10315 0.05344 0.0675 -0.0725 0.03442 -0.03119 0.08484
-0.02475 0.04504 0.01573 0.05484 -0.02705 0.03705 -0.0896 0.03305
-0.03702 -0.08026 -0.05524 0.1412 0.10236 0.1561 0.1057 -0.0938
-0.057 0.01865 -0.04044 0.1138 -0.05774 -0.02786 -0.0882 -0.04175
0.12146 0.1192 0.10364 0.1306 0.1492 -0.014786 0.09326 0.1445
0.0663 0.1597 0.1038 0.04172 -0.05936 0.02626 -0.0334 -0.0386
-0.0932 -0.04 -0.0534 0.0999 0.0741 -0.02975 -0.0755 0.0539
0.03696 -0.01857 -0.07446 0.07947 0.03366 -0.05945 0.1584 0.1421
-0.03348 0.0927 -0.03049 -0.014534 0.11957 0.03598 -0.01802 0.007782
0.008095 0.01965 0.03622 0.1329 0.04126 -0.05124 0.02705 0.0546
0.05862 -0.09424 -0.03735 -0.092 -0.04333 0.06866 -0.06604 0.0668
0.0739 -0.010925 -0.07385 -0.103 -0.02121 -0.1224 0.001026 -0.1625
-0.1495 -0.1327 -0.04388 0.0537 -0.1342 0.0751 -0.06976 0.005653
-0.01799 -0.1265 0.11145 0.07983 0.1365 0.08124 -0.0399 0.1376
0.03592 0.10297 -0.0592 -0.05347 -0.1209 -0.05374 0.03268 -0.06744
0.05554 0.0822 0.05954 -0.04538 -0.1064 -0.04837 0.05542 0.1171

weight f2 [8]
00000000: 313c 6b3b fe3b ea3b 363c 133c 433c 1b3c
1.048 0.9272 0.999 0.9893 1.053 1.019 1.065 1.026

bias f2 [8]
00000000: b82e 6cb4 243e d02c 9b36 f4a4 9933 ff39
0.105 -0.2764 1.535 0.0752 0.4128 -0.01935 0.2374 0.7495

running_mean f2 [8]
00000000: 35b7 12b3 542f 1fb5 6d35 6b32 c9b9 f133
-0.4504 -0.221 0.1145 -0.32 0.339 0.2006 -0.723 0.2482

running_var f2 [8]
00000000: d936 7f34 c633 cb30 5432 2d30 9a33 6235
0.428 0.281 0.2429 0.1498 0.1978 0.1305 0.2375 0.3364

weight f2 [8, 8, 1, 1]
00000000: 5335 de2d 1ab0 d2b1 f8b1 76b3 35ae 5fb0
00000010: 1a33 e6ad 5734 b8b4 822d ce35 5834 ebb3
00000020: 2e8f 682f 74b1 a8ae 952e cdb3 202e f930
00000030: 9ab0 7534 8b28 842f 7736 b0ae 8c31 7caf
00000040: 2caf 3eaa c125 dcae b42d 64a6 2134 30aa
00000050: e42c 42b0 deb4 8a2e 382c 20b2 48b1 d525
00000060: b9ab 4f31 39a5 bc32 9430 07ac bf31 fd34
00000070: 682c 682b 1d28 ab33 48b1 56b2 9a30 08b5
0.3328 0.0917 -0.1282 -0.1819 -0.1865 -0.2332 -0.097 -0.1366
0.2219 -0.09216 0.2712 -0.295 0.08606 0.3628 0.2715 -0.2474
-0.0004382 0.1157 -0.1704 -0.104 0.10284 -0.2438 0.0957 0.1554
-0.1438 0.2786 0.0355 0.11743 0.404 -0.1045 0.1733 -0.11694
-0.11206 -0.04877 0.02248 -0.1072 0.0891 -0.02496 0.258 -0.04834
0.0764 -0.133 -0.3042 0.1022 0.0659 -0.1914 -0.165 0.02278
-0.06033 0.1659 -0.0204 0.2104 0.1431 -0.0629 0.1796 0.3118
0.06885 0.05786 0.03214 0.2396 -0.165 -0.198 0.1438 -0.3145

weight f2 [8]
00000000: 183c d13b a43b 043c 273c 0d3c 0f3c 1d3c
1.023 0.977 0.955 1.004 1.038 1.013 1.015 1.028

bias f2 [8]
00000000: fdba f6b9 e739 4c3b ed3d adab c839 623a
-0.8735 -0.745 0.738 0.912 1.481 -0.05997 0.7227 0.798

running_mean f2 [8]
00000000: 5ab5 ad35 2ead 462f d82b 42b6 9e34 bfb0
-0.3345 0.3547 -0.08093 0.11365 0.06128 -0.391 0.2886 -0.1483

running_var f2 [8]
00000000: b635 da32 bc28 8c30 1f29 5530 cf31 b432
0.357 0.2141 0.037 0.1421 0.04 0.1354 0.1815 0.2095

weight f2 [8, 12, 1, 1]
00000000: 9a26 a3af 7f31 7db4 4432 8b34 7e28 8829
00000010: c734 cbaf 74aa 4ead f327 0a2a 7529 7bae
00000020: 6db4 3f29 19ad bd2d 6e31 d133 b8b3 7328
00000030: e8af 95b3 05b2 0234 5b33 ee31 1a30 0fb4
00000040: d72d 6934 01b2 0b34 1a30 dd33 b2af 2431
00000050: 82b4 0ea8 222c 962e cf32 2934 c833 f132
00000060: a932 3e2c 90b1 b7a8 522a 9db2 3032 3d2f
00000070: 572f 2727 7834 fd2e 9cb4 f0b2 4033 ec2c
00000080: 4a30 b2b4 16b4 7333 e531 0fb4 0330 ccb1
00000090: 3a32 3e29 5134 e2b4 b2b4 2632 9534 c12f
000000a0: 1d31 28b4 f031 fbb4 5d2d 23b0 37a1 b530
000000b0: 13a1 e4a8 c2b3 00b5 8732 39b1 1ab1 6fb0
0.02579 -0.1193 0.1718 -0.2805 0.1958 0.284 0.0351 0.0432
0.2986 -0.12177 -0.0504 -0.0829 0.03105 0.04718 0.04263 -0.10126
-0.2766 0.041 -0.07965 0.08966 0.1697 0.2443 -0.2412 0.03476
-0.12354 -0.2369 -0.1881 0.2505 0.2299 0.1853 0.1282 -0.2537
0.09125 0.2756 -0.1876 0.2527 0.1282 0.2457 -0.12024 0.1606
-0.2817 -0.03168 0.0646 0.1029 0.2128 0.26 0.2432 0.2169
0.2081 0.0663 -0.1738 -0.03683 0.04938 -0.2067 0.1934 0.1131
0.1147 0.02794 0.2793 0.1092 -0.288 -0.2168 0.2266 0.0769
0.134 -0.2935 -0.2554 0.2328 0.1842 -0.2537 0.1254 -0.1812
0.1946 0.04095 0.2698 -0.3052 -0.2935 0.1921 0.2864 0.12115
0.1598 -0.2598 0.1855 -0.3113 0.0838 -0.1293 -0.010185 0.1471
-0.00991 -0.0382 -0.2424 -0.3125 0.204 -0.1632 -0.1594 -0.1385

weight f2 [8]
00000000: 993b 0b3c cf3b 273c 763b 0b3c 393c 163c
0.9497 1.011 0.976 1.038 0.9326 1.011 1.056 1.021

bias f2 [8]
00000000: f3b8 dbb6 adac ac34 5c3b 363e 5e3a 539f
-0.6187 -0.4285 -0.07306 0.292 0.92 1.553 0.796 -0.007153

running_mean f2 [8]
00000000: 2138 33b2 fa39 c438 ae38 1237 04b5 1fb6
0.516 -0.1937 0.747 0.5957 0.585 0.442 -0.3135 -0.3826

running_var f2 [8]
00000000: c732 6132 ce31 4234 8b33 2431 6137 8f31
0.2118 0.1993 0.1814 0.266 0.2357 0.1606 0.4612 0.1737

weight f2 [4, 4, 3, 3]
00000000: 70b0 30b1 ab2d cb29 cfa8 d5af c42a 8699
00000010: e6ae 7b27 5e31 74b0 5ab2 bc21 db2f 88af
00000020: b625 842f 522d bc2a 1c31 fe2c 00b0 c1a0
00000030: 202c 3c2f afb2 472c 03ac 6db1 b5a4 8bb0
00000040: 1e9d a5ae 36b0 69a0 1a22 fe30 c22d f331
00000050: 732c b924 a02d 23a6 7823 8a26 b62d 082c
00000060: bc9c 73af 7d24 f0ac 3326 e730 a5ad eead
00000070: d0a4 38a3 c026 de26 522e f2b0 2aac df2a
00000080: 212e c8aa ccb0 ea1b 622c 06b1 e6b0 5129
00000090: 7aaf 9eb2 c9b0 9a1f 06ac e92d 462a 3ba5
000000a0: a7a8 38aa e0a4 7e29 acb0 8fac 17b0 342c
000000b0: 8caf 4a2f dab0 1bb2 eea3 71aa ac29 2722
000000c0: 2db2 0c2c 44ae 27ac ca2e 6e2e daaf ab25
000000d0: 4830 2b2d fc31 64a7 35af 3b30 cd28 a82f
000000e0: 4bae 98b1 40ac 5cb1 8724 022f 7b28 db9e
000000f0: e82c 92ae e032 ceb1 9cb1 a9a8 fa31 5728
00000100: 812c 8caf 9926 dfab f32a 9b2c 5724 ada7
00000110: e5a9 6cae e7ad e82b 39ad 062e c6ad feab
-0.1387 -0.1621 0.08856 0.04526 -0.03757 -0.1224 0.05286 -0.002697
-0.1078 0.02922 0.1677 -0.1392 -0.1985 0.0112 0.12274 -0.1177
0.02231 0.11743 0.0831 0.0526 0.1597 0.078 -0.125 -0.009285
0.06445 0.11304 -0.2089 0.06683 -0.0627 -0.1696 -0.01839 -0.142
-0.004997 -0.1038 -0.1316 -0.00861 0.01192 0.156 0.08997 0.1859
0.0695 0.01845 0.0879 -0.02397 0.01459 0.02554 0.08923 0.063
-0.004623 -0.1164 0.01753 -0.07715 0.02422 0.1532 -0.0882 -0.09265
-0.0188 -0.0141 0.02637 0.02682 0.09875 -0.1545 -0.06506 0.05368
0.09576 -0.05298 -0.1499 0.003864 0.0685 -0.157 -0.1531 0.04153
-0.1168 -0.2068 -0.1495 0.007423 -0.06287 0.09235 0.049 -0.02043
-0.03635 -0.04858 -0.01904 0.0429 -0.146 -0.0712 -0.1278 0.0657
-0.1179 0.1139 -0.1516 -0.1908 -0.01549 -0.05032 0.0443 0.01202
-0.193 0.06323 -0.0979 -0.0649 0.1061 0.10046 -0.1227 0.02214
0.1338 0.08075 0.187 -0.02887 -0.1126 0.1322 0.0375 0.1196
-0.0983 -0.1748 -0.0664 -0.1675 0.01768 0.1095 0.035 -0.006695
0.07666 -0.10266 0.2148 -0.1814 -0.1753 -0.0364 0.1868 0.0339
0.0704 -0.1179 0.02577 -0.0615 0.0543 0.07196 0.01695 -0.02998
-0.04605 -0.10034 -0.0922 0.06177 -0.0816 0.0941 -0.0902 -0.06244

weight f2 [4]
00000000: 253c 383c dc3b c13b
1.036 1.055 0.9824 0.969

bias f2 [4]
00000000: 9ab4 a937 369f cab6
-0.2876 0.4788 -0.007042 -0.4243

running_mean f2 [4]
00000000: 83b9 e436 9ab8 48b7
-0.689 0.4307 -0.575 -0.455

running_var f2 [4]
00000000: 9537 f134 7637 1235
0.4739 0.3088 0.4663 0.317

weight f2 [4, 4, 3, 3]
00000000: cdaa 51b3 14aa 78ab e5ab 32a8 0d31 872f
00000010: 51ae 9f2f d5af 48b0 8a2a e5a3 50ad 49b1
00000020: faac dc25 d9b1 59b2 cc23 89ae 61b0 87ad
00000030: 4120 22b1 36af 39a7 d2b2 c4aa 85ae 03b0
00000040: e92c caac e3ac cd30 0da6 9d2d 04ae 1fb0
00000050: d2ac 16ab 0e2f 39b3 64ab 1b24 4dad caac
00000060: d72b 17af db2c bcb0 132f 18b0 862e f1af
00000070: 70af 85a0 0731 06b0 62ad 9b30 17a8 e320
00000080: afb2 92ae 70b0 f62d 5229 b0b1 1998 cea8
00000090: 4aad 2ab0 41ad 652f 2eb0 39b0 8f20 cc28
000000a0: 7d2c 6527 d8a5 75ae 07a9 6fac a930 05b2
000000b0: b1af 79b0 1ea6 9b2f 4231 0baf fd24 8f2e
000000c0: 4d2d 0430 33a1 20b0 ff2b 88ad 192c a3ac
000000d0: 3c2b 9531 6f31 56b1 b2b0 adaf edaf 2030
000000e0: 8aaa 8db0 a7ad 86af 122b 36b2 b6b0 8cb2
000000f0: 842a 232f 8cae 3327 9130 6629 1ea8 bf28
00000100: 76a0 7b2d 47ab 9030 092d 18ad 0d31 b72f
00000110: 78ad 01ac e729 eeb0 722a 2524 012e 31b0
-0.05313 -0.2286 -0.0475 -0.05835 -0.06168 -0.03278 0.1578 0.1176
-0.0987 0.1191 -0.1224 -0.1338 0.0511 -0.01542 -0.083 -0.1652
-0.07776 0.02289 -0.1827 -0.1984 0.01523 -0.1021 -0.1368 -0.08636
0.00831 -0.1604 -0.1127 -0.02821 -0.2131 -0.05286 -0.10187 -0.1254
0.0767 -0.0748 -0.07635 0.15 -0.02364 0.0877 -0.094 -0.1288
-0.0753 -0.05536 0.1102 -0.2257 -0.05774 0.01604 -0.0828 -0.0748
0.06125 -0.1108 0.07587 -0.148 0.11053 -0.1279 0.1019 -0.1241
-0.1162 -0.00883 0.1571 -0.1257 -0.0841 0.1439 -0.03195 0.009544
-0.2089 -0.10266 -0.1387 0.09314 0.04156 -0.1777 -0.002 -0.03754
-0.08264 -0.1301 -0.0821 0.11554 -0.1306 -0.132 0.0089 0.03748
0.0701 0.02888 -0.02283 -0.1009 -0.03928 -0.0693 0.1456 -0.1881
-0.1202 -0.1398 -0.0239 0.11884 0.1643 -0.11005 0.01949 0.1025
0.0828 0.1255 -0.010155 -0.1289 0.06247 -0.0864 0.064 -0.07245
0.05652 0.1744 0.1698 -0.1667 -0.1467 -0.11993 -0.12384 0.1289
-0.0511 -0.1422 -0.0883 -0.11755 0.05524 -0.1941 -0.1472 -0.2046
0.0509 0.1115 -0.1023 0.02812 0.1427 0.04218 -0.03217 0.03708
-0.00871 0.08563 -0.05685 0.1426 0.0787 -0.0796 0.1578 0.12054
-0.08545 -0.06256 0.0461 -0.154 0.05035 0.01619 0.0938 -0.131

weight f2 [4]
00000000: aa3b 963b e03b 1b3c
0.958 0.948 0.9844 1.026

bias f2 [4]
00000000: 3f33 e4b4 b9ae 323c
0.2264 -0.3057 -0.10504 1.049

running_mean f2 [4]
00000000: 69b5 5db1 a2b1 90af
-0.3381 -0.1676 -0.176 -0.11816

running_var f2 [4]
00000000: 6130 5332 9d31 9e32
0.1368 0.1976 0.1754 0.2068

weight f2 [8, 8, 3, 3]
00000000: eeb0 9424 ff1a 98b0 4aa8 e3ad d2ae 83a9
00000010: c02c 4ea8 0f2c f92e 4c27 18af 1428 8595
00000020: b729 feb0 ec2d 062f 36ae 56a1 0d2d 61ae
00000030: 82a2 8120 901c d531 0531 8630 4c28 d530
00000040: f6ab 51a9 da9d 5aa4 842d 232a 982c 332e
00000050: 28ab fa25 a728 dc2a fd2c 36ab 3faa 592c
00000060: 30a0 e2aa d12d 0e2d 0fa9 c8a7 1ab0 ecae
00000070: 722a 8ca9 2e30 f9aa 7120 3328 4f2c 6231
00000080: e630 242e b6a2 f9a9 e0ae 0220 2630 8d92
00000090: d82b 659f 1030 342f 59ab 2322 f430 992d
000000a0: 122c cfa5 3eac 5daf 91ae 5f2c 46aa 06ac
000000b0: 18ab 1bad caa8 65af 422a d429 7bab dcac
000000c0: 1b2c f2a4 8724 8728 07ad d521 d221 c12e
000000d0: 7fad ffa4 b72e 04b0 3e95 0b2e 85ac 642e
000000e0: 5a2d 522c 61a6 782d c9ad 7424 f02e 2d2e
000000f0: c02e d130 79a5 f82d 8c2b 1f2d 1028 abaa
00000100: f3ad 1231 dd1e 3731 94b0 59a8 3325 282c
00000110: f622 0a95 0ba1 f2a5 3028 c2ab 7fa8 0aaf
00000120: c72e d12d 63ab 2ea6 c7ac 682c f12b 8930
00000130: 972b 7729 b127 6fb0 d2a7 49b0 73a5 09af
00000140: f0ae 47b2 47ad ba2b 9929 032a 942f b7a4
00000150: 6f29 68af 6ea3 b128 ef2e d72f 0332 b72a
00000160: e92e 43ad 99ad 0b99 ec28 89ad b3aa ca2a
00000170: 65a8 ad2c e830 ff2c 54aa a9ad 53ad 1ca3
00000180: 4930 c19a 62aa 5ba2 8c22 61af b1ad 0e31
00000190: c8a4 102c d02e 6c26 642a 9530 4728 5026
000001a0: 4ea0 10b1 332b 6f24 43a7 57ad fa8f 2eb1
000001b0: 9995 a6a9 1096 2b2d 2eaa 8924 26a6 a3ae
000001c0: 0428 eeae dd2c 0b2c 0230 a3a5 6027 b12a
000001d0: 8d31 a030 29ac 72af 91af 75ad 0e2b 5694
000001e0: ab2e 612c 43a2 60ad 432f be2c c629 35ab
000001f0: 992d 3629 bb2f 312d 612c 73ad 86ab 212c
-0.154 0.01788 0.003416 -0.1436 -0.0335 -0.092 -0.10657 -0.04306
0.0742 -0.03363 0.0634 0.10895 0.0285 -0.11084 0.03186 -0.001348
0.04465 -0.156 0.0925 0.10974 -0.09705 -0.01042 0.0789 -0.0997
-0.01271 0.0088 0.004456 0.1823 0.1569 0.1414 0.03357 0.151
-0.0622 -0.04153 -0.005714 -0.017 0.0862 0.04794 0.0718 0.09686
-0.0559 0.02335 0.03635 0.0536 0.07794 -0.05634 -0.0488 0.06793
-0.00818 -0.05377 0.0909 0.079 -0.03952 -0.0304 -0.1282 -0.10815
0.05035 -0.04333 0.1306 -0.05447 0.008675 0.0328 0.0673 0.1682
0.1531 0.09595 -0.01311 -0.04666 -0.1074 0.00783 0.1296 -0.0007997
0.06128 -0.00722 0.127 0.11255 -0.0574 0.011986 0.1548 0.08746
0.0636 -0.02269 -0.0663 -0.11505 -0.1026 0.0683 -0.049 -0.06287
-0.05542 -0.0798 -0.0374 -0.11554 0.0489 0.04553 -0.05844 -0.0759
0.06415 -0.01932 0.01768 0.03537 -0.07855 0.01139 0.01137 0.1055
-0.0859 -0.01952 0.1049 -0.1255 -0.00128 0.0944 -0.0706 0.09985
0.0836 0.0675 -0.02492 0.08545 -0.0904 0.0174 0.1084 0.0965
0.10547 0.1505 -0.02138 0.09326 0.05896 0.08 0.03174 -0.0521
-0.09296 0.1584 0.006702 0.163 -0.1431 -0.03397 0.02031 0.06494
0.013596 -0.00123 -0.00985 -0.02322 0.0327 -0.0606 -0.03513 -0.11
0.1059 0.0909 -0.0577 -0.02414 -0.07465 0.06885 0.06204 0.1417
0.0593 0.0427 0.03004 -0.1385 -0.03055 -0.1339 -0.02129 -0.1099
-0.1084 -0.1962 -0.08246 0.06036 0.04373 0.04697 0.1184 -0.01842
0.04245 -0.1157 -0.01451 0.03665 0.10834 0.1225 0.1879 0.05246
0.108 -0.0822 -0.08746 -0.002462 0.03845 -0.0865 -0.05234 0.05304
-0.03433 0.07306 0.1533 0.07806 -0.04944 -0.08844 -0.0832 -0.013885
0.1339 -0.003298 -0.04987 -0.01241 0.01279 -0.1153 -0.0889 0.158
-0.01868 0.0635 0.10645 0.02509 0.04993 0.1432 0.03342 0.02466
-0.00841 -0.1582 0.05624 0.01732 -0.02837 -0.08344 -0.0004869 -0.1619
-0.001367 -0.04413 -0.00148 0.08075 -0.04828 0.01772 -0.02402 -0.1037
0.03137 -0.1083 0.076 0.0632 0.1252 -0.02202 0.02881 0.05228
0.1735 0.1445 -0.065 -0.11633 -0.1182 -0.08527 0.0551 -0.001059
0.1042 0.0684 -0.01223 -0.084 0.11346 0.0741 0.0451 -0.0563
0.08746 0.0407 0.1208 0.0811 0.0684 -0.08514 -0.05878 0.0645

weight f2 [8]
00000000: 1c3c 083c e43b eb3b cc3b b53b cf3b 193c
1.027 1.008 0.9863 0.9897 0.9746 0.9634 0.976 1.024

bias f2 [8]
00000000: 4f3b 8a35 0f39 993d 7e31 4fbd 0133 d4b0
0.9136 0.3462 0.6323 1.399 0.1716 -1.327 0.2189 -0.1509

running_mean f2 [8]
00000000: 3037 d33b 4931 91b5 43b9 e0bc 8137 cb3c
0.4492 0.978 0.1652 -0.348 -0.6577 -1.219 0.469 1.198

running_var f2 [8]
00000000: 2f39 df3b 5039 b039 0335 cb3d 5831 583c
0.648 0.984 0.664 0.711 0.3132 1.448 0.167 1.086

weight f2 [8, 8, 1, 1]
00000000: 6c34 8e2c a52e a2b4 1db0 4527 6f2b 1aaf
00000010: 24b6 13b0 a42d 1b34 d3b4 9c30 c7b5 60b6
00000020: 40b3 dda4 f829 80b3 7f34 df34 84a4 5335
00000030: 50b2 4eb0 1daf 78a9 b8b2 f5b4 832f 5330
00000040: d935 5bb0 7630 71b0 142d 53a8 cd34 702e
00000050: 7134 4034 afa1 ab34 30b4 9e34 c734 8536
00000060: 1db3 ccb1 5625 7930 7930 d730 4e34 53ac
00000070: 32ae 3d30 c72e a7b4 051a 34b4 261f 54b1
0.2764 0.07117 0.1038 -0.2896 -0.1285 0.0284 0.05807 -0.11096
-0.3838 -0.1273 0.08813 0.2566 -0.3015 0.144 -0.361 -0.3984
-0.2266 -0.019 0.04663 -0.2344 0.281 0.3044 -0.01764 0.3328
-0.1973 -0.1345 -0.11115 -0.04272 -0.21 -0.3098 0.1174 0.1351
0.3655 -0.1361 0.1394 -0.1388 0.07935 -0.03378 0.3 0.1006
0.2776 0.2656 -0.0111 0.2917 -0.2617 0.2886 0.2986 0.4075
-0.2223 -0.1812 0.02084 0.1398 0.1398 0.1512 0.269 -0.06757
-0.0968 0.1324 0.1059 -0.2908 0.00294 -0.2627 0.00698 -0.1665

weight f2 [8]
00000000: ca3b 983b 003c 563b dd3b 143c a23b 1a3c
0.9736 0.949 1.0 0.917 0.983 1.02 0.954 1.025

bias f2 [8]
00000000: b938 9bbe f0b9 b030 cf3c d53c d3b8 3ab9
0.5903 -1.651 -0.742 0.1465 1.202 1.208 -0.603 -0.6533

running_mean f2 [8]
00000000: 62af 86b1 bfb6 79b2 8233 ad38 552a 24b4
-0.11536 -0.1726 -0.4216 -0.2023 0.2346 0.5845 0.04947 -0.2588

running_var f2 [8]
00000000: 7f31 6e37 c731 752e ff33 9939 c02e 842e
0.1718 0.4644 0.1805 0.1009 0.2499 0.6997 0.10547 0.1018

weight f2 [8, 12, 1, 1]
00000000: c433 adb3 4ba9 2db4 332d 74b3 c72e d9ae
00000010: 91b0 6cb1 fa24 ec34 d833 7c28 d4b4 87ac
00000020: 4eae 38a4 1a31 3333 6131 d72d 3fad fc17
00000030: 3027 c5af 9aa0 76aa 00b5 2033 b6ac 43b3
00000040: 5833 f3b0 b52d 4533 2526 4827 c130 a731
00000050: 52ad 8eb1 dea0 0632 0e29 7533 482c 602c
00000060: 42a7 5c93 93b2 1bb2 51a2 cb2f a132 f325
00000070: f130 d02c 77b4 d6b4 6fb2 092a 43b0 4492
00000080: 80a7 7f30 d62f 5d35 4834 d5b1 3328 3e2c
00000090: b933 8cac 30b0 03b2 6c30 b2ac 56b0 c532
000000a0: 5334 2aa9 50b4 9832 e8af 5fb1 dfb3 19b1
000000b0: 80b3 4db2 8eb4 e3ad b42d ddb1 6da8 c3af
0.2427 -0.2399 -0.04135 -0.261 0.08124 -0.2329 0.1059 -0.107
-0.1427 -0.1694 0.01944 0.3076 0.2451 0.03503 -0.3018 -0.07074
-0.0985 -0.01648 0.1594 0.225 0.1681 0.09125 -0.082 0.001949
0.02808 -0.1214 -0.00899 -0.05048 -0.3125 0.2227 -0.0736 -0.2269
0.2295 -0.1547 0.0892 0.2272 0.024 0.02844 0.1486 0.1766
-0.0831 -0.1736 -0.00951 0.1882 0.0395 0.233 0.0669 0.06836
-0.02835 -0.0008984 -0.2054 -0.1908 -0.01234 0.12177 0.2072 0.02324
0.1544 0.0752 -0.279 -0.3022 -0.201 0.04715 -0.1332 -0.000765
-0.0293 0.1405 0.12244 0.3352 0.2676 -0.1823 0.0328 0.0663
0.2413 -0.07104 -0.1309 -0.1879 0.1382 -0.07336 -0.1355 0.2115
0.2703 -0.04034 -0.2695 0.206 -0.12354 -0.1678 -0.246 -0.1593
-0.2344 -0.1969 -0.2847 -0.092 0.0891 -0.1832 -0.03458 -0.1213

weight f2 [8]
00000000: 723c 1b3c 013c 2a3c 2f3c 083c 353b 383c
1.111 1.026 1.001 1.041 1.046 1.008 0.901 1.055

bias f2 [8]
00000000: 4b37 893c 9028 dd3f 85b9 d037 a628 853b
0.4558 1.134 0.03564 1.966 -0.69 0.4883 0.03632 0.94

running_mean f2 [8]
00000000: 15b6 4136 7e34 f336 c3a5 7d30 2137 d9b9
-0.3801 0.3909 0.2808 0.4343 -0.0225 0.1403 0.4456 -0.731

running_var f2 [8]
00000000: d532 9532 1932 b02f bf33 6732 f839 ed38
0.2135 0.2057 0.1906 0.1201 0.2421 0.2001 0.746 0.6157

weight f2 [4, 4, 3, 3]
00000000: bfa2 cf2e 6dac c5b0 30b1 a8b0 962c 4a2b
00000010: c22c 6eaa a42c 57b1 c32d ad32 57b0 36a8
00000020: d230 d7a4 bfad e22d c99f c515 39ab 312e
00000030: 592c 63a3 21a9 5b30 b731 a727 b2a9 ec2d
00000040: f69f 5531 c1ac c630 e7ac c72d a730 d429
00000050: ec22 b530 25b0 b3ae 87b0 5dae 5b29 7da8
00000060: 2d9e a51f 5231 dab0 77ad 952d c6a5 7d31
00000070: 15ac ccaa cdad 5628 3626 14af 852c 9d29
00000080: 33a8 d4a8 652f a72e 972a 9a2e 1731 bd9a
00000090: 65ad a0a9 58af c82b b29b 30ae d024 5396
000000a0: e630 2c30 46af 2030 4e28 452c 9129 e124
000000b0: be2c 1034 54b1 5bac 3ab0 28aa a91a 602c
000000c0: 20ac c32f 792f cdab a2a2 67af 8529 bbb0
000000d0: d0b0 c1a5 6dae 9f30 acaa d318 60a5 122f
000000e0: 58af 6aac 64b1 32b1 6030 24b1 65a0 22a5
000000f0: 3c2a 522c a9af 4130 b9b0 ae28 10a6 5ca8
00000100: 4431 5630 8f9d cfae 5c2f 302e e424 26af
00000110: a3a8 5331 3b2c 84a9 32b0 17b0 d928 12ad
-0.013176 0.1064 -0.06915 -0.149 -0.1621 -0.1455 0.07166 0.05695
0.07434 -0.05023 0.0725 -0.1669 0.09 0.2086 -0.1356 -0.0329
0.1506 -0.0189 -0.0898 0.0919 -0.007603 0.001409 -0.05643 0.09674
0.06793 -0.01443 -0.04007 0.1361 0.1786 0.02989 -0.0445 0.0925
-0.007774 0.1666 -0.0743 0.1492 -0.0766 0.0903 0.1454 0.04553
0.01352 0.1471 -0.1295 -0.1047 -0.1415 -0.0994 0.04184 -0.03506
-0.00603 0.007465 0.1663 -0.1516 -0.0854 0.0872 -0.02255 0.1715
-0.0638 -0.0531 -0.09064 0.03387 0.02426 -0.1106 0.0706 0.04385
-0.0328 -0.03772 0.11554 0.10394 0.05148 0.10315 0.159 -0.00329
-0.0843 -0.04395 -0.11475 0.0608 -0.003757 -0.0967 0.0188 -0.001544
0.1531 0.1304 -0.11365 0.1289 0.03363 0.0667 0.0435 0.01906
0.0741 0.254 -0.1665 -0.06805 -0.1321 -0.0481 0.003252 0.06836
-0.06445 0.1213 0.11676 -0.06094 -0.012955 -0.11566 0.04312 -0.1478
-0.1504 -0.02248 -0.1004 0.1444 -0.05212 0.002356 -0.021 0.1105
-0.11475 -0.069 -0.1685 -0.1624 0.1367 -0.1606 -0.00858 -0.02005
0.0487 0.0675 -0.1197 0.1329 -0.1476 0.03656 -0.02368 -0.03406
0.1646 0.1355 -0.00543 -0.1064 0.115 0.0967 0.0191 -0.1117
-0.03622 0.1664 0.0661 -0.0431 -0.1311 -0.1278 0.03787 -0.0792

weight f2 [4]
00000000: a83b ac3b 313c 0b3c
0.957 0.959 1.048 1.011

bias f2 [4]
00000000: 38b9 32ba 5040 12ba
-0.6523 -0.7744 2.156 -0.759

running_mean f2 [4]
00000000: 65b0 3eb0 0e38 e5b7
-0.1373 -0.1326 0.507 -0.4934

running_var f2 [4]
00000000: b22f a330 7236 2b33
0.12024 0.1449 0.4028 0.224

weight f2 [4, 4, 3, 3]
00000000: f3aa df2d b1ab 73a9 c5a8 c62f ec2e 5930
00000010: 322e d6b1 96ae 6521 c0ac a52c 7ea8 822f
00000020: 9831 9aad 4c31 632d 0fb0 5f32 a1ae 84ad
00000030: 14ae 34a8 01a6 83a0 aab1 85ac a52f 9230
00000040: 872e 2724 9d22 0eb1 ae2f 19b0 e3ac a3a8
00000050: 8f2e dca8 1aac d2a7 96b1 dfaa 1a21 d6aa
00000060: 66ad 7a1d 08b3 01b1 392b 9aac 5823 752e
00000070: 7f2f 88a5 10ae 7eaa 832d c8a4 e62d d4b0
00000080: 9cac 672f 511e 5619 0799 d1af 69ad 5828
00000090: 87a4 28ac 1ba2 c02c a823 84ae faa0 61ac
000000a0: 172c 82b0 fd2e 8a2a 36b1 d52d 18b2 6d9a
000000b0: 03ae 0db2 6228 dfac 8d30 86ae 7b31 a030
000000c0: 9131 a624 bfa8 7ab0 ea2e 92ae 10a0 431c
000000d0: 2f2d 93b0 c52e dfb0 3030 80aa bcab 5810
000000e0: 8729 eda3 08af fc31 dc31 c229 3d31 162b
000000f0: 7524 cbad 54ad 3eaf c18d a030 7aac 8aa5
00000100: fca5 26ac bc27 0d32 b131 1031 56a4 ada8
00000110: fe2a 0baf 42af 2230 e721 66af ea2f 6e22
-0.0543 0.09174 -0.0601 -0.04257 -0.03726 0.12146 0.10815 0.1359
0.0968 -0.1824 -0.1029 0.01054 -0.0742 0.0726 -0.0351 0.1173
0.1748 -0.0875 0.1655 0.08417 -0.1268 0.1991 -0.1036 -0.0862
-0.095 -0.03284 -0.02345 -0.00881 -0.177 -0.0706 0.11945 0.1428
0.102 0.01622 0.01292 -0.158 0.12 -0.128 -0.07635 -0.03622
0.1025 -0.03796 -0.0641 -0.03055 -0.1746 -0.05368 0.009964 -0.0534
-0.08435 0.00535 -0.2197 -0.1564 0.05643 -0.0719 0.01434 0.1009
0.1171 -0.0216 -0.0947 -0.05072 0.0861 -0.01868 0.09216 -0.1509
-0.072 0.11566 0.00617 0.002605 -0.002455 -0.12213 -0.08453 0.03394
-0.01768 -0.06494 -0.011925 0.0742 0.01495 -0.1018 -0.00972 -0.0684
0.0639 -0.1409 0.1092 0.0511 -0.1628 0.0911 -0.1904 -0.003138
-0.09393 -0.1891 0.03424 -0.0761 0.1422 -0.1019 0.1713 0.1445
0.174 0.01816 -0.03708 -0.1399 0.10803 -0.10266 -0.007935 0.00416
0.081 -0.143 0.1058 -0.1522 0.1309 -0.05078 -0.06042 0.0005302
0.04318 -0.01548 -0.10986 0.187 0.1831 0.04498 0.1637 0.05536
0.01741 -0.0905 -0.08325 -0.11316 -0.0003512 0.1445 -0.06995 -0.02164
-0.02338 -0.0648 0.03021 0.1891 0.1779 0.1582 -0.01694 -0.03653
0.05463 -0.11005 -0.1134 0.1292 0.01153 -0.1156 0.12366 0.01256

weight f2 [4]
00000000: 463c 4b3c 233c f93b
1.068 1.073 1.034 0.9966

bias f2 [4]
00000000: 033b 353d 403d f33b
0.8765 1.302 1.3125 0.9937

running_mean f2 [4]
00000000: 79a7 4338 bc3b ef38
-0.02919 0.5327 0.967 0.6167

running_var f2 [4]
00000000: 262f a62d 3233 0334
0.1117 0.08826 0.2249 0.2507

weight f2 [16, 8, 3, 3]
00000000: 1da2 45b1 a7a5 1e23 fea9 9aad 3c2c 9c29
00000010: b398 4128 a726 222e aa12 e2a7 8d2c 6b29
00000020: f22a 041f 1119 1026 f128 c1a8 94ac 212b
00000030: 32a8 0e28 2529 6326 9e2b a0a5 ba2d 8525
00000040: 0227 682e 782f 47ae 5fa5 07ad f5a8 c22d
00000050: d4ae 7aae 622d 44ab be2e be2b f62b 2d2f
00000060: c3ad fc2d f225 74aa 652b d8a7 4faa 6d9c
00000070: 42a9 0830 422f f49d 28ae 039f d621 4628
00000080: b0aa b9a6 b0a9 74b0 b1b0 6db1 9cac afa5
00000090: 1226 c82f beaa cfab 9729 fda8 7693 d12f
000000a0: 58a0 4d2d 521c 05ac 632a 21ae c5a5 3925
000000b0: 642b 77af 0a23 bca9 dc2b 8f21 a91f 2528
000000c0: cba7 92a4 e42b e3ae 14af b717 b7ab 9d14
000000d0: 122e ccaa 72b0 c9ac 0b2d ada9 5cac c225
000000e0: aea3 0fb0 ab2d 2c2c 4e2e 3b2b 73a8 aaa9
000000f0: 1324 66ac 13a6 c4ae 91ac 3320 56a4 45ac
00000100: 8daf 8f29 6caa abb0 562f 802c ceac 29ac
00000110: 4e30 661c bfaa bd2c d2a5 8925 2eaa c4ac
00000120: dab0 acae 78b0 fd28 c398 c5aa ad2c 68ad
00000130: b3ab b427 d1ae f62a fe28 4bab 9eae 952b
00000140: a82b 70a6 15af b8ac c41d a426 1d2d 842a
00000150: 4f29 e52c 902d 1630 9c2f 03ac bf22 8829
00000160: 822c a92d b628 72aa 9fab 8630 0fa6 801e
00000170: acab 08ab 6829 4b2b 11a9 b7a5 f22e 44a8
00000180: 02ae eba3 be2e 3928 33a4 34ab a229 5ead
00000190: 4a2c c529 6f2a ac24 9bab 4c2c a527 a4ae
000001a0: aab0 89ab 0310 abb0 a627 f6ae 3cb1 3f9a
000001b0: 99ac 0018 1ba2 a9a9 20b0 38af ea27 82a9
000001c0: 49ac df23 beac 4b2b db2c b630 29ac 0123
000001d0: 142e 9d30 29a9 a92e bc2c c32e ccad eb28
000001e0: c79e baa9 ce2c 7830 d1a8 722e d4a1 e02b
000001f0: 122e be2c 65ad aaa6 0c2c a9ad f025 7a9d
-0.01194 -0.1647 -0.02208 0.0139 -0.0468 -0.0875 0.06616 0.04382
-0.002295 0.03323 0.02599 0.0958 0.0008135 -0.03079 0.0711 0.04233
0.05426 0.00685 0.002474 0.02368 0.0386 -0.03714 -0.07153 0.0557
-0.03278 0.03168 0.0402 0.02495 0.0595 -0.02197 0.0895 0.02156
0.02737 0.1001 0.1167 -0.0981 -0.02098 -0.07855 -0.03873 0.08997
-0.1067 -0.1012 0.0841 -0.05676 0.10535 0.0605 0.0622 0.1121
-0.09 0.0935 0.02322 -0.0504 0.05777 -0.03064 -0.0493 -0.004322
-0.04108 0.126 0.1134 -0.005814 -0.0962 -0.006847 0.0114 0.0334
-0.05225 -0.02626 -0.04443 -0.1392 -0.1466 -0.1696 -0.072 -0.0222
0.02371 0.1216 -0.05267 -0.061 0.04367 -0.03897 -0.0009108 0.12213
-0.008484 0.0828 0.00422 -0.0628 0.0499 -0.09576 -0.02254 0.0204
0.05774 -0.11664 0.01375 -0.0448 0.0614 0.01086 0.00748 0.03238
-0.03044 -0.01785 0.06165 -0.1076 -0.1106 0.0018835 -0.06027 0.001126
0.09485 -0.0531 -0.1389 -0.07477 0.0788 -0.04434 -0.0681 0.02249
-0.015 -0.1268 0.08856 0.0652 0.0985 0.0565 -0.03476 -0.04425
0.01591 -0.0687 -0.02373 -0.1057 -0.07135 0.0082 -0.01694 -0.0667
-0.118 0.04343 -0.05017 -0.1459 0.1146 0.0703 -0.0751 -0.065
0.1345 0.004295 -0.0527 0.07404 -0.02274 0.02162 -0.04828 -0.07446
-0.1516 -0.10425 -0.1396 0.03897 -0.002325 -0.0529 0.07306 -0.0845
-0.06015 0.03009 -0.1065 0.05438 0.039 -0.05698 -0.1034 0.05923
0.0598 -0.02515 -0.11066 -0.0737 0.00563 0.02594 0.0799 0.0509
0.04147 0.0765 0.0869 0.1277 0.1189 -0.0627 0.013176 0.0432
0.07043 0.08844 0.0368 -0.05035 -0.05954 0.1414 -0.02367 0.006348
-0.05994 -0.05493 0.04224 0.05698 -0.03958 -0.02232 0.1085 -0.03333
-0.0939 -0.015465 0.10535 0.033 -0.0164 -0.05627 0.044 -0.08386
0.067 0.04507 0.05026 0.01825 -0.05942 0.06714 0.02986 -0.10376
-0.1458 -0.05887 0.0004897 -0.1459 0.02988 -0.10876 -0.1636 -0.00305
-0.07184 0.001953 -0.011925 -0.04422 -0.1289 -0.1128 0.03091 -0.04303
-0.06696 0.01537 -0.0741 0.05698 0.07587 0.1472 -0.065 0.01368
0.095 0.1442 -0.0403 0.10406 0.074 0.10565 -0.0906 0.03842
-0.00662 -0.04474 0.0751 0.1396 -0.03763 0.1007 -0.01138 0.06152
0.09485 0.0741 -0.0843 -0.02603 0.06323 -0.08844 0.0232 -0.00535

weight f2 [16]
00000000: 0c3c e93b 1c3c fb3b 0d3c fd3b 873c ef3b
00000010: cf3b e63b f83b 143c 1f3c c33b eb3b db3b
1.012 0.989 1.027 0.9976 1.013 0.9985 1.132 0.9917
0.976 0.9873 0.996 1.02 1.03 0.97 0.9897 0.982

bias f2 [16]
00000000: e03c bcbd c63f c92f fb39 4139 aa3a ed35
00000010: fd35 c334 6f34 bc38 eeb4 83b6 d138 a7ba
1.219 -1.434 1.943 0.12164 0.7476 0.6567 0.833 0.3704
0.3743 0.2976 0.277 0.592 -0.308 -0.407 0.602 -0.8315

running_mean f2 [16]
00000000: 3336 abbb 64ac 2b38 7f38 ed38 c3b7 cb28
00000010: 73bc 2236 7036 7837 b734 0aa1 82b3 ebb0
0.3875 -0.9585 -0.0686 0.521 0.562 0.6157 -0.485 0.03745
-1.112 0.3833 0.4023 0.4668 0.2947 -0.00984 -0.2346 -0.1537

running_var f2 [16]
00000000: a739 9537 4a38 423a 1b35 a539 483f 5e39
00000010: dd34 4f36 7737 b836 4036 6e39 923b ba36
0.7065 0.4739 0.536 0.782 0.319 0.7056 1.82 0.671
0.304 0.3943 0.4666 0.42 0.3906 0.6787 0.9463 0.4204

weight f2 [16, 16, 1, 1]
00000000: 0f31 adb0 e2b2 6429 81ae d4af 0918 bcb3
00000010: 4c33 4f24 0cb0 d233 2c2a 7624 f9ae 2b32
00000020: a8ac 9332 40a6 592e 8531 bbb2 79b2 30b4
00000030: c231 9133 68ae e7ae 682c 7f2e f326 f9a8
00000040: 20b2 8532 35b2 4eb4 8fac eb25 8d32 1131
00000050: c7ac 7cad fab0 d2b0 43af c92a d2aa 5bb0
00000060: 5bb1 99af f0af 15b2 f9a5 b22e d0b1 a2a1
00000070: 0fa9 81ac a9ae b8ad b027 62b1 602b 7033
00000080: cc32 97ae 2a2f 69b3 a634 cab1 eeb3 26b4
00000090: 62b3 8c1d 04a4 582c abab 3a1d 01ae 11b0
000000a0: aab1 ed30 35ae 5820 6330 7fac 95ae ebb1
000000b0: 99b1 dd30 f5a8 c331 6328 5d1a ceb2 d0a1
000000c0: 40ae 08b0 6eae bfa1 14b3 5d24 a531 4923
000000d0: 0434 dd2d ecb2 69ae 43ae 2128 3da9 5d31
000000e0: 46a6 84b0 56b0 04b3 58ad b32d 3ba3 0ab4
000000f0: 57b3 b72d 65b3 b8b2 c7b0 be32 3aae e1ae
00000100: f8b1 0e31 20a8 e728 3a2b 9728 ae30 c19a
00000110: db26 fea3 5eb2 faaa 2932 07b2 5fb2 d8b3
00000120: 5827 cdb2 cfaf d533 9a31 3b31 2b26 21b3
00000130: a1af 8fb2 08af 9f2d f9ae 0434 f1b0 55b3
00000140: 3534 b3b1 2834 112f 11b1 3334 12b0 59af
00000150: 32b1 04b3 b82d 40b2 a628 36a5 1730 40ac
00000160: f62c 6ba3 062c 48b0 61b1 b52a 30b1 8daf
00000170: feb3 81ad 83b1 ba31 f231 da29 ba32 b730
00000180: 9cb3 b2aa e5aa 6ab0 402d 1eae 51b0 b3a7
00000190: a7b2 4d31 3931 7133 eeac 692c 0ea8 37b3
000001a0: 0828 e7b2 02b1 c4af b5b1 26a1 5130 0f25
000001b0: 0230 d7a8 0aae 1ab2 72b2 94ab 54b2 f4b0
000001c0: 2daa 1aaa e9b1 fd2f bc31 24b2 df31 911e
000001d0: f7a7 4333 d01c 43b4 7433 67a3 33af 7fab
000001e0: d733 4128 7a2e 4e30 3fb0 e8a2 8db2 7b30
000001f0: b4ad 7f31 e721 7432 1bb4 79a9 772e fba8
0.1581 -0.1461 -0.2151 0.0421 -0.1016 -0.1223 0.00197 -0.2417
0.228 0.01683 -0.1265 0.2444 0.04822 0.01743 -0.10895 0.1927
-0.07275 0.2054 -0.02441 0.0992 0.1725 -0.2103 -0.2023 -0.2617
0.1799 0.2365 -0.1001 -0.10785 0.06885 0.1015 0.02715 -0.03885
-0.1914 0.2037 -0.194 -0.269 -0.0712 0.02312 0.2047 0.1583
-0.07465 -0.0857 -0.1555 -0.1506 -0.11346 0.053 -0.05328 -0.1361
-0.1674 -0.1187 -0.124 -0.1901 -0.02333 0.1046 -0.1816 -0.011
-0.03952 -0.0704 -0.10406 -0.08936 0.03003 -0.1682 0.05762 0.2324
0.2124 -0.10297 0.11194 -0.2316 0.2905 -0.1809 -0.2478 -0.2593
-0.2307 0.005417 -0.01569 0.0679 -0.0599 0.005104 -0.0938 -0.1271
-0.177 0.1539 -0.097 0.008484 0.1371 -0.07025 -0.10284 -0.1849
-0.1749 0.152 -0.03873 0.18 0.03427 0.003107 -0.2126 -0.01135
-0.09766 -0.126 -0.10046 -0.01122 -0.2212 0.01704 0.1764 0.01423
0.251 0.0916 -0.2163 -0.10016 -0.09784 0.03226 -0.04092 0.1676
-0.0245 -0.1411 -0.1355 -0.2192 -0.0835 0.08905 -0.01412 -0.2524
-0.2294 0.0893 -0.2311 -0.21 -0.1493 0.2107 -0.0973 -0.1075
-0.1865 0.158 -0.03223 0.0383 0.05646 0.03586 0.1462 -0.003298
0.02678 -0.01561 -0.199 -0.0545 0.1925 -0.1884 -0.1991 -0.2451
0.02869 -0.2125 -0.122 0.2448 0.175 0.1635 0.0241 -0.2228
-0.1192 -0.205 -0.10986 0.0878 -0.10895 0.251 -0.1544 -0.2291
0.263 -0.1781 0.2598 0.1104 -0.1583 0.2625 -0.1272 -0.1148
-0.1624 -0.2192 0.08936 -0.1953 0.03632 -0.02036 0.1278 -0.0664
0.0775 -0.01449 0.06287 -0.1338 -0.1681 0.0524 -0.1621 -0.118
-0.2498 -0.086 -0.1722 0.179 0.1858 0.04572 0.2102 0.1473
-0.2378 -0.0523 -0.05386 -0.138 0.08203 -0.0956 -0.1349 -0.03008
-0.2079 0.1656 0.1632 0.2325 -0.077 0.0689 -0.03168 -0.2255
0.0315 -0.2157 -0.1565 -0.12134 -0.1783 -0.010056 0.1349 0.01976
0.1252 -0.0378 -0.09436 -0.1907 -0.2014 -0.0592 -0.1978 -0.1548
-0.04825 -0.04767 -0.1847 0.1248 0.1792 -0.1919 0.1835 0.006413
-0.03111 0.2269 0.0047 -0.2664 0.2329 -0.01446 -0.1125 -0.05856
0.245 0.03323 0.1012 0.1345 -0.1327 -0.01349 -0.2047 0.14
-0.0891 0.1718 0.01153 0.2017 -0.2566 -0.04276 0.101 -0.0389

weight f2 [16]
00000000: e03b cb3b 193c 163c c73b 013c d93b ed3b
00000010: a63b c03b d83b 763b b43b d63b 193c 1a3c
0.9844 0.974 1.024 1.021 0.972 1.001 0.981 0.9907
0.956 0.9688 0.9805 0.9326 0.963 0.9795 1.024 1.025

bias f2 [16]
00000000: bc3d 2aba 3b3c ee27 c83a 8ebc 22b5 133a
00000010: febe f23c 3b3c 19b9 3ab8 e736 2f3b 3d3c
1.434 -0.7705 1.058 0.03098 0.8477 -1.139 -0.3208 0.7593
-1.748 1.236 1.058 -0.637 -0.5283 0.4314 0.898 1.06

running_mean f2 [16]
00000000: 76b4 f5b4 14b9 c5b8 372c 31b8 1eb4 06b9
00000010: 00b3 fead 7238 71ac 11b5 dcb5 7fb4 0a37
-0.2788 -0.3098 -0.635 -0.596 0.06586 -0.524 -0.2573 -0.628
-0.2188 -0.0936 0.5557 -0.0694 -0.3167 -0.3662 -0.281 0.44

running_var f2 [16]
00000000: 5032 9d2f 673b 7f32 3431 3930 e036 7b35
00000010: 7c33 ba32 c239 3434 102f 4239 6234 1c37
0.1973 0.11896 0.9253 0.203 0.1626 0.132 0.4297 0.3425
0.2339 0.2102 0.7197 0.2627 0.11035 0.657 0.274 0.4443

weight f2 [16, 24, 1, 1]
00000000: 4324 552e 58b2 7dac fd2d 782c 3130 cca9
00000010: 8e2c 42a6 fe2a 75a7 702f 35a7 3e22 8b31
00000020: fa2c ae2c 5e16 6bb1 0525 18ad 97b3 bc32
00000030: b9aa faae 6ab2 21b3 4a25 e3ae 51ab 04b0
00000040: 8030 2dab 002e 4e30 22b1 fb30 bbac 6b31
00000050: 822e 08b4 4f9b f529 d8aa d430 4eb2 63ae
00000060: bf32 3232 c430 81af e9b0 80b1 dea8 6b30
00000070: ad28 38ac f62f 622f 48af b4ab a7a7 f614
00000080: 4eaf 0c2f 8b31 68aa 0e2f 9a27 6129 ac2d
00000090: 32b0 2aae 4230 e2ac 7c2f 7baf 5830 fe2e
000000a0: bea6 4c2f bbae 3620 ba2b 1c2c 412a 1aa8
000000b0: c7ae 0f2f ea2c 452c 642f 02ad 10ab a0a5
000000c0: 3f31 10b1 2db0 9cac a9b0 b3b0 ec2f e3a1
000000d0: 4ab1 17ab c4a6 f3ad 51b1 f72d 07ac 0c32
000000e0: e0b0 49b1 8dac a5b0 8530 e030 4731 d8b0
000000f0: c32f 3731 2baf 3aa5 452f 5b32 98b3 9331
00000100: b8aa 552c 4db0 3eb1 58ae 562c beaa 502f
00000110: 712e 6a2c 78aa 0fae 28ad 62b0 8b32 93a8
00000120: 0daf 0fb2 7c2c dcb0 5eaa df2e 41ad 8a2f
00000130: 4fab 44af 43b3 f72a c1b1 5e30 cc2d 7a2c
00000140: 5dae 2332 0eb3 b9b2 5d2e 7d29 dda9 e1ac
00000150: 42b1 63b1 a2ab c231 292d a626 6fac 1f32
00000160: eca3 5c2e 2124 ab2b fa29 de30 232f c627
00000170: 0c2c b3a9 f430 df2e 4f30 29a8 4ab1 bb2b
00000180: ae2c 402f 8b2e 0f2e 9f30 b3ab 9b31 892d
00000190: d82e 3130 0bb3 752c 5431 04ae 9428 54b1
000001a0: 0cae 7915 4b2e acae 2eb3 7c30 fa2e 44ac
000001b0: 5330 e02e 69ac fc99 4b2c 5ca8 25ae 51b0
000001c0: e5ac 4230 0da8 60ac c431 68a7 1c30 3633
000001d0: 18ac df2a 8633 e8ab 49a6 8107 f3a9 a12e
000001e0: 652d e1af 282f 4a33 51b0 72b0 d6af b931
000001f0: 9db2 28b1 ef2d cdae 3e31 87a0 862b a5a4
0.01665 0.09894 -0.1982 -0.0701 0.09357 0.0698 0.131 -0.0453
0.07117 -0.02444 0.05463 -0.02913 0.1162 -0.02815 0.01219 0.1732
0.07776 0.0731 0.0015545 -0.1693 0.0196 -0.0796 -0.2372 0.2104
-0.05252 -0.109 -0.2004 -0.2228 0.02066 -0.1076 -0.05716 -0.1255
0.1406 -0.05606 0.09375 0.1345 -0.1604 0.1556 -0.0739 0.1693
0.1017 -0.252 -0.003569 0.04654 -0.05347 0.1509 -0.197 -0.0998
0.2108 0.1936 0.1489 -0.11725 -0.1534 -0.1719 -0.03802 0.1381
0.03653 -0.0659 0.1244 0.11536 -0.1138 -0.06018 -0.02989 0.001211
-0.11414 0.1101 0.1732 -0.05005 0.1102 0.0297 0.04202 0.0886
-0.1311 -0.0963 0.133 -0.0763 0.11694 -0.1169 0.1357 0.10925
-0.02634 0.114 -0.10516 0.008224 0.06036 0.0642 0.04886 -0.03204
-0.1059 0.1103 0.0768 0.0667 0.1155 -0.07825 -0.05518 -0.02197
0.164 -0.1582 -0.1305 -0.072 -0.1456 -0.1469 0.1238 -0.0115
-0.1653 -0.0554 -0.02643 -0.09296 -0.1661 0.0932 -0.0629 0.189
-0.1523 -0.1652 -0.0711 -0.1451 0.1412 0.1523 0.1649 -0.1514
0.1213 0.163 -0.112 -0.02042 0.1136 0.1986 -0.2373 0.1742
-0.0525 0.0677 -0.1344 -0.1638 -0.0991 0.06775 -0.05267 0.11426
0.10065 0.069 -0.05054 -0.09467 -0.08057 -0.137 0.2045 -0.03574
-0.11017 -0.1893 0.07007 -0.1519 -0.04974 0.10736 -0.0821 0.1178
-0.0571 -0.1135 -0.2269 0.0544 -0.1798 0.1365 0.0906 0.06995
-0.0994 0.1918 -0.2205 -0.2101 0.0994 0.04288 -0.0458 -0.07623
-0.1643 -0.1683 -0.05963 0.1799 0.0806 0.02597 -0.0693 0.1913
-0.01547 0.09937 0.01613 0.0599 0.0467 0.1521 0.1115 0.03036
0.06323 -0.04453 0.1548 0.10736 0.1346 -0.0325 -0.1653 0.0604
0.0731 0.1133 0.10223 0.09467 0.1444 -0.06015 0.1752 0.0865
0.10693 0.131 -0.2201 0.06964 0.1665 -0.094 0.03577 -0.1665
-0.0945 0.001336 0.0983 -0.10425 -0.2244 0.1401 0.109 -0.06665
0.1351 0.1074 -0.0689 -0.002922 0.0671 -0.03406 -0.096 -0.1349
-0.0765 0.133 -0.03165 -0.06836 0.1802 -0.02893 0.1284 0.2253
-0.06396 0.05368 0.2351 -0.06177 -0.02455 0.0001145 -0.04648 0.1036
0.0843 -0.1231 0.1118 0.2278 -0.1349 -0.1389 -0.12244 0.1788
-0.2067 -0.1611 0.0927 -0.10626 0.1638 -0.00884 0.05878 -0.01814

weight f2 [16]
00000000: 4e3c cc3b 043c 303c 003c e93b 0f3c 223c
00000010: d73b a13b 9f3b 103c 0d3c 1e3c 0a3c 1e3c
1.076 0.9746 1.004 1.047 1.0 0.989 1.015 1.033
0.98 0.9536 0.9526 1.016 1.013 1.029 1.01 1.029

bias f2 [16]
00000000: a638 c3bd 38b1 d838 2ab9 29b4 6daf 9db0
00000010: 8237 91b8 81a4 4727 7f38 7d35 7135 1f38
0.581 -1.44 -0.1631 0.6055 -0.6455 -0.26 -0.116 -0.1442
0.4692 -0.571 -0.0176 0.02843 0.562 0.343 0.34 0.515

running_mean f2 [16]
00000000: d8a8 a1b9 633b 6936 eeb4 5235 16b7 ed36
00000010: ca34 913b ae38 23b3 5db4 c2b4 5bad 7eb1
-0.03784 -0.7036 0.9233 0.4006 -0.308 0.3325 -0.4429 0.4329
0.2993 0.946 0.585 -0.223 -0.2727 -0.2974 -0.0837 -0.1716

running_var f2 [16]
00000000: 2b3a b531 8235 d533 1839 7b30 2c38 0337
00000010: d535 623a cc34 8430 ac33 d335 a631 ee35
0.771 0.1783 0.3442 0.2448 0.6367 0.14 0.5215 0.4382
0.3645 0.798 0.2998 0.1411 0.2397 0.364 0.1765 0.3706

weight f2 [8, 8, 3, 3]
00000000: 1aad b19e 6baf 6f2b f3a6 2c23 c72a 592a
00000010: 5bac 652a 85ad a1b0 e128 5faf 4dad b9a2
00000020: 1c29 1aa9 99a4 e2af b0ab 892c caa4 8d2d
00000030: a7ae 78a9 2eae 822d 902d b42a 7b30 862c
00000040: aaad 70ad f922 91b0 362e ba2d 2a2a f1ae
00000050: d62d 559e 29a9 cd2c 6120 f1aa f698 cbad
00000060: 372a f929 8c21 232e 43b0 a6aa 23ae 25a5
00000070: 23b0 382f a92e ad2c 6da9 412e 46a0 9fa7
00000080: c62d 7527 e4ab a92f 1bab f421 90b0 8aa7
00000090: 72ad f6aa 45ac 11a7 d8ab faad 0f2b 212a
000000a0: d4af a82d fa2c bd2a 0130 4e2b b32e f5a9
000000b0: fe25 0630 00a2 562d 222f b2aa 1ca2 6230
000000c0: 4a83 662a a127 2b2c 8fa8 ff24 d22e 4324
000000d0: 87ac f2a8 69ad 6faa 422c ec1f 37ae bbac
000000e0: 41a8 12aa a7a8 14ae 612c 6825 2429 b927
000000f0: d426 912d 2429 e326 9fa5 042b 27aa 1a29
00000100: 2aac 8829 bb2c 9cab 592f 71aa b830 862a
00000110: 62a8 612d 99af b0a9 54ab d1a9 36a9 bfb0
00000120: 1f2f a024 11a8 ca27 1ba7 2b29 bf1c 7fac
00000130: b0a5 3031 0fa4 b3a6 1029 7aa9 9ca6 3824
00000140: 1aac 309e cd30 372c b5a9 c330 09ac baac
00000150: 0b29 942f 1d2f bb2c abad 1124 f2ad d71e
00000160: 0a2d 3229 35af 86a5 47af 1129 c1a5 f9aa
00000170: 90a7 d72a 2a2a 6c2f 4726 7d26 90ac 5ea8
00000180: a6a8 672c 1621 faae cab0 40af 0cb0 5ea8
00000190: b62c b1ae 749e 471d 39af 8db0 9aa6 482c
000001a0: 18ac 7c94 abae fb1e a01f ad2b c82b 0e2e
000001b0: 9ba4 9c2d 2cac c8aa 74ae 74ad b62e 21a9
000001c0: 8fac cfa1 b0ae 1725 5526 39aa 132c 15a8
000001d0: 5ab0 0da5 e72b 10a7 de26 899a 9f21 2f29
000001e0: 38b0 c22b b627 c81f ab25 f9ad d8a4 0328
000001f0: 292b 12ad 9ca5 91ac 892b 4db0 9e22 7c2b
-0.0797 -0.006535 -0.1159 0.05807 -0.02715 0.01401 0.05295 0.0496
-0.06805 0.04996 -0.08624 -0.1447 0.03812 -0.1152 -0.0828 -0.01313
0.03992 -0.03986 -0.01796 -0.12317 -0.06006 0.07086 -0.0187 0.08673
-0.10394 -0.04272 -0.09656 0.08606 0.0869 0.05237 0.14 0.0707
-0.0885 -0.08496 0.01362 -0.1427 0.09705 0.0895 0.04816 -0.10846
0.0912 -0.006184 -0.0403 0.075 0.00855 -0.05423 -0.002422 -0.0905
0.04855 0.04666 0.01083 0.0959 -0.1332 -0.05194 -0.0959 -0.0201
-0.1293 0.1128 0.10406 0.07306 -0.0424 0.0977 -0.00835 -0.02977
0.0902 0.02913 -0.06165 0.1197 -0.0555 0.01163 -0.1426 -0.02945
-0.0851 -0.05438 -0.0667 -0.0276 -0.06128 -0.0934 0.05515 0.04788
-0.1223 0.0884 0.07776 0.05264 0.1251 0.05707 0.1047 -0.04654
0.0234 0.1257 -0.01172 0.0834 0.11145 -0.0523 -0.01193 0.137
-5.02e-05 0.05 0.0298 0.0651 -0.0356 0.01952 0.10657 0.01665
-0.07074 -0.03864 -0.08453 -0.05026 0.0665 0.007736 -0.0971 -0.0739
-0.03323 -0.04742 -0.03635 -0.095 0.0684 0.02112 0.04016 0.03017
0.02667 0.087 0.04016 0.0269 -0.02196 0.0548 -0.04807 0.03986
-0.06506 0.0432 0.0739 -0.05945 0.1148 -0.05032 0.1475 0.05096
-0.03424 0.08405 -0.1187 -0.04443 -0.05725 -0.04544 -0.0407 -0.1483
0.11127 0.01807 -0.03177 0.03043 -0.02776 0.04037 0.004635 -0.07025
-0.02222 0.1621 -0.01585 -0.02617 0.03955 -0.0428 -0.02582 0.01648
-0.0641 -0.006042 0.15 0.06586 -0.0446 0.1488 -0.06305 -0.07385
0.0394 0.1184 0.11115 0.0739 -0.08856 0.01588 -0.0929 0.00668
0.07874 0.0406 -0.1126 -0.02158 -0.1137 0.03958 -0.02248 -0.05447
-0.02954 0.05344 0.04816 0.11597 0.02452 0.02534 -0.0713 -0.03412
-0.03632 0.0688 0.00993 -0.109 -0.1497 -0.1133 -0.1265 -0.03412
0.0736 -0.10455 -0.0063 0.005154 -0.11285 -0.1422 -0.02579 0.0669
-0.06396 -0.001095 -0.1042 0.006817 0.007446 0.05997 0.0608 0.0946
-0.01799 0.08765 -0.0652 -0.05298 -0.1008 -0.0852 0.10486 -0.04007
-0.0712 -0.011345 -0.1045 0.01988 0.02473 -0.0486 0.06366 -0.0319
-0.136 -0.01973 0.06174 -0.02759 0.02682 -0.003191 0.01098 0.0405
-0.1318 0.0606 0.03012 0.0076 0.02214 -0.0933 -0.01892 0.03134
0.05594 -0.0792 -0.02191 -0.07135 0.05887 -0.1344 0.012924 0.05847

weight f2 [8]
00000000: b03b 9e3b 593c d23b 1d3c ae3b e73b bb3b
0.961 0.952 1.087 0.9775 1.028 0.96 0.988 0.9663

bias f2 [8]
00000000: 3eaf 8035 c73c e533 cdb0 05ba 2a3e 7138
-0.11316 0.3438 1.194 0.2467 -0.15 -0.7524 1.541 0.555

running_mean f2 [8]
00000000: c6b8 973a 6e2d 7f2f e1b0 d633 0239 57b0
-0.5967 0.8237 0.08484 0.1171 -0.1525 0.2449 0.626 -0.1356

running_var f2 [8]
00000000: 8036 e335 1039 ba33 9636 4a36 3a38 de39
0.4062 0.368 0.633 0.2415 0.4116 0.393 0.5283 0.7334

weight f2 [8, 8, 3, 3]
00000000: da2d 2e2f d226 90ac c729 e72f 8310 6e25
00000010: 992e f02e 582f d89e 4d2b 32a2 3ea4 6318
00000020: da2e 202e b721 3c22 54aa ffb0 eea7 5baa
00000030: 18b1 18ae 03ac 2921 a5ac 082d ebad 60ac
00000040: 8fac 1c2a 8824 01ab f02c 8ba1 4aa8 2028
00000050: 2130 4da8 b5a4 0e31 b92f 7810 a327 512a
00000060: 741e 0eae 5daa 5aac 77a9 881d 82a8 702f
00000070: b70f c5a5 5420 8f2a 87aa 27a9 e7a9 f7ad
00000080: fa1f 7cae ebaa 2aac 7430 1ba8 7f2e d428
00000090: a1aa 962d f4ad 6fae d1a6 35a4 e5ac 0627
000000a0: 9a27 7eac 0621 dd29 a4ae b82f 9ea5 8cac
000000b0: d8a4 6fad 5a2f faac 292e ce30 8927 80b0
000000c0: 952c 272e 88ab b7a8 90ad 4fad 61a8 b42e
000000d0: c824 66a3 20ab e6a8 37ab 91a8 c22c b72e
000000e0: 19b0 ed25 9ba7 8dad 92a8 b0a8 7bac b592
000000f0: 702b c3a6 fe9e 7326 20aa 742c 3332 ec9c
00000100: a229 682f 0d30 67ad d9a5 47af cd29 ef2d
00000110: 27ac 432c 6624 6caa 8a1a ce25 0020 ad16
00000120: c92b 9f2d a129 ea1b 7129 dbae 6829 6bab
00000130: 92af 8e2a 4b28 ce2e f628 5d26 892d 83a5
00000140: e5b0 dfa7 552c 7ca4 e6ac ee2c 2c2e adae
00000150: 2b31 602a 5f2a 66ac a4ad b6a4 fb99 e2a4
00000160: 0530 50af 5fad ffa8 f42e 70a2 7b30 8a2c
00000170: 5cab 5629 3329 0cae 0bb0 772c 802b 41a8
00000180: 0fa0 1d2d 1f2d 62a2 46ac 42a8 132c 9f2e
00000190: 662b 3cac 751c 8830 42ad 4aad ad2a 0c30
000001a0: 72af 3fad 18a9 c030 17ab 98a8 572d 40a9
000001b0: fea9 4fae 2b94 2b2e f428 5b2d 1424 be21
000001c0: 2ca8 dd28 40a9 bab1 e6ac ab23 f725 3aa6
000001d0: 97a9 dea6 6ab0 d728 642c b129 012c c32d
000001e0: b630 392e 762d 5529 ed28 3aae 41a6 bf29
000001f0: 6029 faad 41ac 12ae 1c2d 0f24 c4ac 0925
0.09143 0.1122 0.02664 -0.0713 0.04514 0.1235 0.0005507 0.02121
0.1031 0.1084 0.11475 -0.006683 0.05704 -0.0121 -0.01657 0.002142
0.10706 0.0957 0.01116 0.01218 -0.04944 -0.1561 -0.03098 -0.04965
-0.1592 -0.0952 -0.0627 0.01008 -0.0726 0.0786 -0.09247 -0.06836
-0.0712 0.04773 0.0177 -0.05472 0.07715 -0.010826 -0.0335 0.03223
0.129 -0.0336 -0.01839 0.158 0.12067 0.0005455 0.02983 0.04935
0.0063 -0.0946 -0.0497 -0.068 -0.0427 0.0054 -0.03522 0.1162
0.0004709 -0.02254 0.00845 0.05124 -0.051 -0.04025 -0.0461 -0.0932
0.00779 -0.1013 -0.05405 -0.06506 0.1392 -0.03207 0.1015 0.03772
-0.0518 0.0873 -0.093 -0.1005 -0.02663 -0.01643 -0.0765 0.02744
0.0297 -0.0702 0.00981 0.0458 -0.10376 0.1206 -0.02194 -0.07104
-0.01892 -0.0849 0.11487 -0.07776 0.09625 0.1501 0.02943 -0.1406
0.0716 0.0961 -0.05884 -0.03683 -0.0869 -0.08295 -0.0342 0.10474
0.01868 -0.01445 -0.05566 -0.03827 -0.05637 -0.03568 0.07434 0.1049
-0.128 0.02315 -0.02971 -0.08673 -0.0357 -0.03662 -0.07 -0.0008187
0.0581 -0.02641 -0.00683 0.02519 -0.04785 0.0696 0.1937 -0.004807
0.044 0.1157 0.1266 -0.0844 -0.02284 -0.1137 0.04532 0.0927
-0.0649 0.0666 0.01718 -0.05017 0.003193 0.02267 0.007812 0.00163
0.06082 0.0878 0.04398 0.003864 0.0425 -0.1071 0.04224 -0.05795
-0.1183 0.0512 0.03354 0.1063 0.03876 0.02486 0.0865 -0.02153
-0.153 -0.03075 0.0677 -0.01752 -0.07654 0.077 0.09644 -0.1043
0.1615 0.0498 0.04977 -0.0687 -0.08813 -0.0184 -0.00292 -0.01907
0.1256 -0.11426 -0.0839 -0.03903 0.10864 -0.01257 0.14 0.0709
-0.0575 0.0417 0.04062 -0.0945 -0.1263 0.06976 0.0586 -0.03323
-0.00793 0.0799 0.08 -0.01247 -0.0668 -0.03326 0.06366 0.10345
0.0578 -0.06616 0.004353 0.1416 -0.08215 -0.08264 0.05215 0.1265
-0.11633 -0.082 -0.0398 0.1484 -0.0554 -0.0359 0.08344 -0.04102
-0.0468 -0.0986 -0.001018 0.0964 0.0387 0.0837 0.01593 0.011215
-0.0326 0.038 -0.04102 -0.179 -0.07654 0.01498 0.0233 -0.02432
-0.04367 -0.02682 -0.138 0.0378 0.0686 0.04446 0.06256 0.09
0.1472 0.0972 0.0853 0.04166 0.03848 -0.0973 -0.02443 0.0449
0.042 -0.0934 -0.06647 -0.09485 0.07983 0.01585 -0.07446 0.01967

weight f2 [8]
00000000: 3a3c 453c 3a3c 303c e13b 153c de3b 1a3c
1.057 1.067 1.057 1.047 0.985 1.0205 0.9834 1.025

bias f2 [8]
00000000: 243a 683b 373c 3d3a 88ae bc35 fab1 3db0
0.7676 0.926 1.054 0.78 -0.10205 0.3584 -0.1868 -0.1324

running_mean f2 [8]
00000000: e6b6 3838 f837 05b5 6938 2aaf bdb4 ef3c
-0.4312 0.5273 0.498 -0.3137 0.5513 -0.11194 -0.2961 1.233

running_var f2 [8]
00000000: 2f37 ab34 ea34 eb37 533a 5e37 4136 223b
0.449 0.2917 0.3071 0.4949 0.7905 0.4604 0.3909 0.8916
