Model_Train/runs/detect/train7/weights/last.pt (torch, 548390 bytes, 281 tensors)

weight f2 [8, 3, 3, 3]
000000 db a3 9b 2d 9c b1 e9 b0 b5 ad cf 28 c7 a1 85 30
       -0.01534 0.0876 -0.1753 -0.1534 -0.0892 0.03757 -0.011284 0.1412
000010 c1 a6 b1 28 a3 ac 4a aa 4f b2 8a b0 ac ad d6 98
       -0.02638 0.03665 -0.07245 -0.04913 -0.1971 -0.1418 -0.0886 -0.002361
000020 17 2c ea 2e 53 ae 36 ab 07 2e 2f 32 97 a1 82 31
       0.0639 0.10803 -0.0988 -0.05634 0.0942 0.1932 -0.01092 0.1721
000030 e0 1c 87 2a 99 32 c5 b1 0b b0 41 aa b1 ab ad 31
       0.00476 0.051 0.2062 -0.1803 -0.1263 -0.04886 -0.0601 0.1774
000040 e4 ae d2 ab ed ae bf b0 d2 af e9 30 e0 2c 49 2e
       -0.10767 -0.0611 -0.1082 -0.1483 -0.1222 0.1534 0.0762 0.0982
000050 1d 22 04 ae 55 2a 46 b1 d1 af 1c ad 5c 30 e6 2f
       0.01194 -0.094 0.04947 -0.1648 -0.12213 -0.07983 0.1362 0.1234
000060 0b aa 91 26 df 30 a1 33 b6 2f 64 2c 7c 2f 4b b0
       -0.0472 0.02565 0.1522 0.2384 0.1205 0.0686 0.11694 -0.1342
000070 00 1f d6 b0 9b b0 b0 af 47 2d 4c 2c 3f b0 30 2c
       0.006836 -0.1511 -0.1439 -0.1201 0.08246 0.06714 -0.1327 0.0654
000080 52 2e bb a9 3e 25 e0 29 d0 2e 26 32 c8 b0 53 ad
       0.09875 -0.04477 0.02048 0.0459 0.10645 0.1921 -0.1494 -0.0832
000090 73 2c 8e 30 89 30 59 31 b0 26 09 b2 70 1c 79 b0
       0.0695 0.1423 0.1417 0.1671 0.02612 -0.1886 0.004333 -0.1398
0000a0 8d b2 e3 31 2c 31 7b b1 dd 29 6e a5 6d a3 b7 ac
       -0.2047 0.184 0.1616 -0.1713 0.0458 -0.02121 -0.0145 -0.07367
0000b0 c9 2d e1 ad bd 2d f5 2f 66 31 45 2e 0b b1 80 ad
       0.0904 -0.09186 0.08966 0.1243 0.1687 0.09796 -0.1576 -0.08594
0000c0 5b 30 be 2d e2 ad f6 af 42 31 21 2f 0f af 1b ad
       0.1361 0.0897 -0.0919 -0.1244 0.1643 0.1114 -0.1103 -0.0798
0000d0 f8 b2 bd a5 56 b1 95 b1 8e a6 06 23 6d ad aa 2d
       -0.2178 -0.02242 -0.1667 -0.1744 -0.0256 0.01372 -0.0848 0.0885
0000e0 7e b0 42 31 72 2e 2a b2 46 ac 26 a7 80 9c e3 27
       -0.1404 0.1643 0.1007 -0.1926 -0.0668 -0.02792 -0.004395 0.0308
0000f0 85 27 e6 a7 29 af b3 29 40 b3 5c b0 92 a8 f1 ad
       0.02937 -0.03085 -0.1119 0.04453 -0.2266 -0.1362 -0.0357 -0.09283
000100 32 ac 13 b1 64 aa 61 29 f2 af 92 a4 4d 30 31 a7
       -0.06555 -0.1586 -0.04993 0.04202 -0.12415 -0.01785 0.1344 -0.02809
000110 34 1d e6 a0 4a 28 04 30 25 32 af 2f 18 32 0e 0e
       0.00508 -0.00957 0.0335 0.1255 0.192 0.12006 0.1904 0.0003695
000120 88 b2 54 af b8 2e c1 a5 f7 ae 39 b1 31 b2 4e b1
       -0.2041 -0.1145 0.105 -0.02248 -0.1088 -0.1632 -0.1935 -0.1658
000130 e5 a9 ed 2f 60 30 aa b0 54 30 af af d2 9c 13 ac
       -0.04605 0.12384 0.1367 -0.1458 0.1353 -0.12006 -0.004707 -0.06366
000140 8d 9d ea 93 67 b1 fb b1 67 ab f6 1c 2f af ef 29
       -0.00542 -0.000966 -0.1688 -0.1869 -0.05783 0.004845 -0.11224 0.04636
000150 0d b2 e3 aa 2f 30 22 b0 0b 2f 25 91 23 b3 55 2b
       -0.1891 -0.0538 0.1307 -0.1292 0.11005 -0.000628 -0.223 0.05728
000160 96 ad 8c b0 37 2d 43 b3 c4 22 13 ab 0b 30 d1 28
       -0.0873 -0.1421 0.0815 -0.2269 0.013214 -0.05527 0.1263 0.03763
000170 61 2c 78 2a bd ac c8 ac 0c b2 5d 2e d1 30 40 30
       0.0684 0.05054 -0.07404 -0.0747 -0.189 0.0994 0.1505 0.1328
000180 d7 b0 cc 89 6e b0 0d b0 0b b0 13 2b 8a af 5c 99
       -0.1512 -0.0001769 -0.1384 -0.1266 -0.1263 0.05527 -0.1178 -0.002617
000190 37 23 fa 2f 5e b0 67 af 5a ae df 30 cd a9 7d 31
       0.01409 0.12463 -0.1365 -0.11566 -0.09924 0.1522 -0.04532 0.1715
0001a0 05 2d 0f 28 a0 98 bc a8 86 26 fb a9 53 9d a8 24
       0.0784 0.0317 -0.002258 -0.037 0.02548 -0.04672 -0.0052 0.01819

weight f2 [8]
000000 42 3c bd 3b 07 3c c9 3b df 3b c5 3b 07 3c fd 3b
       1.064 0.9673 1.007 0.973 0.984 0.971 1.007 0.9985

bias f2 [8]
000000 a5 3b 7d bf 15 b5 c0 a9 35 22 f3 b5 ac 36 de b7
       0.9556 -1.872 -0.3176 -0.04492 0.01212 -0.3718 0.417 -0.4917

running_mean f2 [8]
000000 06 98 2e a5 7c ac d2 a8 11 b7 b1 ac cb b8 88 ac
       -0.001965 -0.02023 -0.07007 -0.03766 -0.4417 -0.0733 -0.599 -0.0708

running_var f2 [8]
000000 40 18 9c 1c 39 1a ef 19 dd 26 8c 1b 9e 2a bf 17
       0.002075 0.0045 0.003038 0.002897 0.02681 0.003685 0.0517 0.001891

weight f2 [8, 8, 3, 3]
000000 96 ae ba ac 2d 2d 18 af dc a7 8a 2e d8 27 ee a0
       -0.1029 -0.07385 0.0809 -0.11084 -0.0307 0.1022 0.03064 -0.00963
000010 86 ae fb 25 27 af a7 ab 1e ac da a8 32 a4 9d 2c
       -0.1019 0.02336 -0.11176 -0.05978 -0.06433 -0.0379 -0.01639 0.0721
000020 bd a0 70 2d 81 2c 8a ac fe 28 96 ac 5b a8 48 26
       -0.009254 0.08496 0.0704 -0.0709 0.039 -0.07166 -0.03403 0.02454
000030 c4 29 cd 2d 22 aa 85 a4 e6 29 ea af 55 2c f7 ae
       0.04504 0.09064 -0.0479 -0.01765 0.04608 -0.12366 0.0677 -0.1088
000040 46 9e eb a6 3d ac 91 20 2d 2e 94 a8 b0 ac db a9
       -0.006126 -0.02702 -0.0662 0.00892 0.0965 -0.03577 -0.07324 -0.04575
000050 b6 af 19 2a a3 ab 59 ad d8 ac a3 2d a4 2c 46 2e
       -0.1205 0.04764 -0.05966 -0.08356 -0.0757 0.0881 0.0725 0.098
000060 13 2c 2f a7 57 a6 32 2b f9 2e 33 29 31 ad c2 ac
       0.06366 -0.02806 -0.02477 0.0562 0.10895 0.04062 -0.0811 -0.07434
000070 5f b0 19 9d b9 ad 46 b0 3f 2c c2 ae ef a9 78 0a
       -0.1366 -0.00498 -0.0894 -0.1335 0.06635 -0.1056 -0.04636 0.0001974
000080 56 a6 0c ae 27 af a9 2c a4 1e 64 2e f3 a8 6e 28
       -0.02475 -0.0945 -0.11176 0.0728 0.006485 0.09985 -0.03867 0.0346
000090 13 af ee ac b8 b0 8b a8 79 a7 d3 ac 5f ad 35 b0
       -0.11053 -0.077 -0.1475 -0.0355 -0.02919 -0.0754 -0.0839 -0.1315
0000a0 66 24 b7 af d2 24 eb ac e8 ad fe 9f 49 ae 97 9f
       0.01718 -0.12054 0.01883 -0.07684 -0.0923 -0.007805 -0.0982 -0.007412
0000b0 f1 9b 9b af 21 21 21 2a 75 2a 34 a8 01 af b0 a2
       -0.003878 -0.11884 0.01002 0.04788 0.05045 -0.03284 -0.10944 -0.01306
0000c0 11 25 30 ab 8a 2a df 25 77 ad 57 a2 c4 25 5f 23
       0.01979 -0.05615 0.0511 0.02293 -0.0854 -0.01238 0.02252 0.0144
0000d0 c0 25 ed 9d d4 ac 81 27 1e 2c c1 2d d8 2c 9e 24
       0.02246 -0.005787 -0.07544 0.02931 0.06433 0.0899 0.0757 0.01804
0000e0 95 2b 06 a8 a2 ad 88 ad f8 30 01 2f aa a9 61 2d
       0.05923 -0.03143 -0.088 -0.0864 0.1553 0.10944 -0.04425 0.08405
0000f0 62 2e 33 30 ad 2f 32 2d 58 a8 79 a9 e6 2d 9b 2b
       0.09973 0.1312 0.11993 0.0812 -0.03394 -0.04276 0.09216 0.05942
000100 a0 ac a3 2e d3 2a 57 2c 9d ac 66 28 e3 a7 67 2d
       -0.07227 0.1037 0.0533 0.0678 -0.0721 0.03436 -0.0308 0.0844
000110 7c a6 b5 29 f4 23 fd 2a f3 a6 b4 28 c1 ad 3b 28
       -0.02533 0.0446 0.01553 0.0546 -0.02715 0.03674 -0.0899 0.03305
000120 a0 a8 13 ad f1 aa 8c 30 9c 2e 0a 31 c7 2e f9 ad
       -0.03613 -0.0793 -0.05423 0.1421 0.1033 0.1575 0.1059 -0.0933
000130 2f ab 0b 24 80 a9 1e 2f b4 ab b2 a7 c8 ad 92 a9
       -0.05612 0.0158 -0.04297 0.1112 -0.06018 -0.03006 -0.09033 -0.04352
000140 ac 2f 89 2f 77 2e 22 30 b2 30 55 a4 e1 2d 8e 30
       0.1199 0.11774 0.101 0.1292 0.1467 -0.01692 0.09186 0.1423
000150 1e 2c 12 31 8b 2e a8 28 f7 ab ee 25 f1 a8 44 a9
       0.06433 0.1584 0.10223 0.03638 -0.06223 0.02316 -0.0386 -0.04114
000160 1d ae 85 a9 f6 aa 5b 2e e3 2c 2d a7 b3 ac 06 2b
       -0.0955 -0.04312 -0.05438 0.0993 0.07635 -0.02803 -0.0734 0.05487
000170 cc 28 83 a4 b9 ac 19 2d 62 28 e7 aa 47 31 be 30
       0.03748 -0.01762 -0.0738 0.07965 0.03424 -0.05392 0.1649 0.1482
000180 44 a7 51 2e 5c a6 08 a1 ff 2f 40 29 04 a4 c4 20
       -0.02838 0.0987 -0.02484 -0.00983 0.12494 0.04102 -0.01569 0.00931
000190 f4 20 59 25 b3 28 45 30 60 29 8d aa f1 26 e8 2a
       0.009674 0.02089 0.0367 0.1334 0.042 -0.05118 0.02711 0.05396
0001a0 71 2b 08 ae f7 a8 f4 ad a3 a9 53 2c 4b ac 3c 2c
       0.05814 -0.09424 -0.0388 -0.093 -0.04404 0.06757 -0.0671 0.06616
0001b0 bc 2c 70 a1 b5 ac 97 ae 66 a5 d3 af 84 15 31 b1
       0.074 -0.01062 -0.07355 -0.10297 -0.02109 -0.12225 0.001347 -0.1622
0001c0 c8 b0 3f b0 9d a9 da 2a 48 b0 d3 2c 74 ac 25 1e
       -0.1494 -0.1327 -0.04385 0.05353 -0.1338 0.0754 -0.0696 0.006
0001d0 80 a4 09 b0 2e 2f 40 2d 66 30 4a 2d c6 a8 74 30
       -0.01758 -0.1261 0.1122 0.08203 0.1375 0.08264 -0.0373 0.1392
0001e0 b7 28 b9 2e 60 ab 2f ab c8 af ff aa fe 27 54 ac
       0.03683 0.10504 -0.05762 -0.05612 -0.1216 -0.05466 0.03122 -0.0676
0001f0 12 2b 25 2d 94 2b ca a9 d2 ae 42 aa 16 2b 7f 2f
       0.05524 0.0804 0.0592 -0.04523 -0.10657 -0.0489 0.05536 0.1171

weight f2 [8]
000000 2f 3c 68 3b 02 3c f1 3b 35 3c 15 3c 44 3c 1a 3c
       1.046 0.926 1.002 0.9927 1.052 1.0205 1.066 1.025

bias f2 [8]
000000 53 2e 6d b4 24 3e 59 2d 9f 36 14 a4 8a 33 f7 39
       0.0988 -0.2766 1.535 0.08356 0.4138 -0.01593 0.2356 0.7456

running_mean f2 [8]
000000 bc b7 0e b4 a1 31 18 b5 5b 35 6e 33 e9 b9 0e 33
       -0.4834 -0.2534 0.1759 -0.3184 0.3347 0.2322 -0.739 0.2205

running_var f2 [8]
000000 e2 35 6c 35 c0 34 ad 31 7c 32 25 30 83 33 4b 35
       0.3677 0.3389 0.2969 0.1774 0.2026 0.1295 0.2347 0.3308

weight f2 [8, 8, 1, 1]
000000 56 35 f9 2d 0e b0 c7 b1 0b b2 79 b3 20 ae 58 b0
       0.3335 0.0933 -0.1267 -0.1805 -0.1888 -0.2335 -0.0957 -0.1357
000010 30 33 c3 ad 59 34 bb b4 9b 2d ba 35 58 34 03 b4
       0.2246 -0.09 0.2717 -0.2957 0.0876 0.358 0.2715 -0.2507
000020 36 91 22 2f a4 b1 cc ae 7d 2e f0 b3 28 2e da 30
       -0.000636 0.11145 -0.1763 -0.1062 0.1014 -0.248 0.0962 0.1516
000030 7f b0 78 34 89 28 86 2f 6e 36 09 af 9b 31 a2 af
       -0.1405 0.2793 0.03543 0.11755 0.4019 -0.1099 0.1752 -0.11926
000040 04 af 41 aa 80 24 29 af ba 2d 42 a7 1c 34 c5 aa
       -0.1096 -0.04886 0.01758 -0.1119 0.0895 -0.02835 0.2568 -0.0529
000050 ce 2c 4e b0 d7 b4 a6 2e 16 2c 1e b2 63 b1 2c 26
       0.0751 -0.1345 -0.3025 0.1039 0.06384 -0.1912 -0.1683 0.02411
000060 65 ab 4b 31 d6 a4 d1 32 a2 30 ca ab b4 31 ff 34
       -0.05777 0.1654 -0.01889 0.213 0.1448 -0.06085 0.1782 0.3123
000070 71 2c dc 2b 55 28 ac 33 5e b1 57 b2 9c 30 02 b5
       0.0694 0.0614 0.03384 0.2397 -0.1677 -0.1981 0.144 -0.313

weight f2 [8]
000000 17 3c d1 3b af 3b 08 3c 29 3c 08 3c 0f 3c 1e 3c
       1.022 0.977 0.9604 1.008 1.04 1.008 1.015 1.029

bias f2 [8]
000000 04 bb fc b9 ef 39 58 3b ef 3d 3e ac c9 39 62 3a
       -0.877 -0.748 0.7417 0.918 1.483 -0.0663 0.723 0.798

running_mean f2 [8]
000000 49 b5 ac 35 38 af 88 2f b4 29 45 b6 9b 34 b2 b0
       -0.3303 0.3545 -0.1128 0.1177 0.04456 -0.3918 0.2878 -0.1467

running_var f2 [8]
000000 d3 35 7e 32 49 2a 34 30 96 29 d0 30 e0 31 8f 31
       0.364 0.2029 0.0491 0.1313 0.04364 0.1504 0.1836 0.1737

weight f2 [8, 12, 1, 1]
000000 b4 26 bd af 98 31 8e b4 2f 32 a0 34 06 28 00 29
       0.02618 -0.1209 0.1748 -0.2847 0.1932 0.289 0.03143 0.03906
000010 b4 34 72 af d1 aa 57 ad 7e 27 e8 29 96 29 ac ae
       0.294 -0.11633 -0.05325 -0.08344 0.02927 0.04614 0.04364 -0.10425
000020 68 b4 3d 29 3e ad bf 2d 68 31 c9 33 c7 b3 8c 28
       -0.2754 0.04092 -0.0819 0.0898 0.169 0.2433 -0.243 0.03552
000030 e2 af 70 b3 40 b2 11 34 58 33 d7 31 36 30 0c b4
       -0.12317 -0.2324 -0.1953 0.2542 0.2295 0.1825 0.1316 -0.253
000040 d5 2d 5c 34 eb b1 0c 34 3c 30 d4 33 74 af 1f 31
       0.0911 0.2725 -0.1849 0.253 0.1323 0.2446 -0.11646 0.16
000050 7c b4 78 a7 f5 2b e9 2e d7 32 3a 34 a8 33 25 33
       -0.2803 -0.02917 0.06216 0.108 0.2137 0.2642 0.2393 0.2233
000060 b5 32 7d 2c 81 b1 52 a8 3c 2a 96 b2 39 32 3c 2f
       0.2096 0.0701 -0.172 -0.03375 0.0487 -0.2058 0.1945 0.11304
000070 4a 2f 2e 27 80 34 f4 2e 95 b4 0c b3 8f 33 c3 2c
       0.1139 0.02805 0.2812 0.10864 -0.2864 -0.2202 0.2362 0.0744
000080 56 30 92 b4 21 b4 7f 33 f0 31 e1 b3 dd 2f b6 b1
       0.1355 -0.2856 -0.258 0.2343 0.1855 -0.2462 0.12286 -0.1785
000090 34 32 55 29 42 34 e0 b4 c1 b4 4f 32 94 34 a5 2f
       0.1938 0.04166 0.266 -0.3047 -0.297 0.1971 0.2861 0.11945
0000a0 f8 30 22 b4 f8 31 00 b5 a3 2d 1a b0 b5 90 c9 30
       0.1553 -0.2583 0.1865 -0.3125 0.0881 -0.1282 -0.0005746 0.1495
0000b0 9e 9d de a6 ef b3 ea b4 ad 32 e7 b0 47 b1 38 b0
       -0.005486 -0.02682 -0.2479 -0.3071 0.2086 -0.1532 -0.1649 -0.1318

weight f2 [8]
000000 8c 3b 07 3c d4 3b 25 3c 76 3b 0d 3c 3f 3c 15 3c
       0.9434 1.007 0.9785 1.036 0.9326 1.013 1.062 1.0205

bias f2 [8]
000000 fa b8 d7 b6 af ac bb 34 60 3b 31 3e 5d 3a 35 a2
       -0.622 -0.4275 -0.0732 0.2957 0.922 1.548 0.7954 -0.01212

running_mean f2 [8]
000000 32 38 16 b2 36 3a e7 38 b9 38 20 37 71 b5 40 b5
       0.5244 -0.1902 0.7764 0.613 0.5903 0.4453 -0.34 -0.3281

running_var f2 [8]
000000 89 33 22 33 62 32 a3 34 45 34 1b 31 00 37 87 31
       0.2355 0.2229 0.1995 0.2898 0.2668 0.1595 0.4375 0.1727

weight f2 [4, 4, 3, 3]
000000 59 b0 2c b1 cd 2d 11 2a e4 a8 d4 af 1a 2b 7b 98
       -0.1359 -0.1616 0.09064 0.0474 -0.0382 -0.1223 0.05548 -0.002188
000010 d4 ae 0d 28 73 31 5f b0 56 b2 26 22 e6 2f 95 af
       -0.1067 0.03165 0.1703 -0.1366 -0.198 0.01201 0.1234 -0.11847
000020 80 25 71 2f 6d 2d f5 2a 2c 31 f5 2c 06 b0 e8 a0
       0.02148 0.1163 0.0848 0.05435 0.1616 0.07745 -0.1257 -0.00958
000030 12 2c 29 2f b4 b2 73 2c e5 ab 6a b1 63 a4 8f b0
       0.0636 0.1119 -0.2095 0.0695 -0.06168 -0.1692 -0.01714 -0.1425
000040 4c 9e 85 ae 33 b0 b4 a0 ec 22 08 31 e1 2d fb 31
       -0.00615 -0.10187 -0.1312 -0.009186 0.01352 0.1572 0.09186 0.1869
000050 88 2c 32 25 7a 2d e4 a6 c9 21 c8 25 93 2d ec 2b
       0.0708 0.0203 0.0856 -0.02692 0.0113 0.02258 0.0871 0.0619
000060 2d a0 a5 af d7 23 01 ad e5 25 e4 30 78 ad bf ad
       -0.008156 -0.11945 0.01531 -0.0782 0.02303 0.1528 -0.08545 -0.0898
000070 e4 a3 9c a1 86 27 a7 27 85 2e db b0 04 ac 6a 2a
       -0.01541 -0.010956 0.02939 0.02989 0.10187 -0.1517 -0.06274 0.0501
000080 e6 2d 26 ab e5 b0 5e 12 2f 2c 1f b1 00 b1 e3 28
       0.09216 -0.05585 -0.153 0.0007772 0.06537 -0.16 -0.1562 0.03818
000090 c0 af c0 b2 e5 b0 39 1c 30 ac c4 2d c7 29 07 a6
       -0.1211 -0.2109 -0.153 0.004124 -0.0654 0.0901 0.04514 -0.02354
0000a0 01 a9 49 ab 09 a7 7f 28 f6 b0 12 ad 56 b0 7f 2b
       -0.0391 -0.05692 -0.02748 0.03513 -0.155 -0.0792 -0.1355 0.05856
0000b0 f4 af e4 2e c8 b0 09 b2 ec a2 48 aa d9 29 bb 22
       -0.12427 0.10767 -0.1494 -0.1886 -0.01352 -0.04907 0.0457 0.013145
0000c0 1d b2 24 2c 31 ae 3b ac b2 2e 55 2e f6 af 47 25
       -0.191 0.0647 -0.09674 -0.0661 0.1046 0.09894 -0.1244 0.02061
0000d0 3a 30 04 2d ea 31 f3 a7 cd ae 52 30 07 29 02 30
       0.1321 0.07837 0.1848 -0.03105 -0.10626 0.135 0.03928 0.1252
0000e0 37 ae 96 b1 d6 ab 52 b1 b4 24 bc 2e e7 27 be a1
       -0.0971 -0.1746 -0.06122 -0.1663 0.01837 0.1052 0.03087 -0.011215
0000f0 8d 2c ef ae b1 32 f9 b1 ca b1 67 a9 17 32 b3 28
       0.0711 -0.10834 0.2091 -0.1866 -0.1809 -0.0422 0.1903 0.0367
000100 b4 2c 63 af 18 27 7a ab ec 2a 88 2c 0a 24 35 a7
       0.0735 -0.1154 0.02771 -0.0584 0.05408 0.0708 0.01578 -0.02815
000110 f2 a9 74 ae d7 ad c5 2b 4e ad 1d 2e d0 ad 0d ac
       -0.04645 -0.1008 -0.09125 0.0607 -0.0829 0.0955 -0.0908 -0.0633

weight f2 [4]
000000 28 3c 39 3c d1 3b cd 3b
       1.039 1.056 0.977 0.975

bias f2 [4]
000000 8d b4 9a 37 c8 a4 a0 b6
       -0.2844 0.475 -0.01868 -0.414

running_mean f2 [4]
000000 d2 b9 07 37 32 b9 4b b7
       -0.7275 0.4392 -0.6494 -0.4558

running_var f2 [4]
000000 f8 37 24 35 dc 36 76 35
       0.498 0.3213 0.4287 0.3413

weight f2 [4, 4, 3, 3]
000000 f3 ab ae b3 8e ab 4a ac a9 ac 9c a9 de 30 fe 2e
       -0.0621 -0.24 -0.05902 -0.067 -0.0728 -0.04382 0.1521 0.10925
000010 dc ae 7c 2f cc af 38 b0 07 2b 12 a1 ef ac 16 b1
       -0.1072 0.11694 -0.1218 -0.1318 0.0549 -0.0099 -0.0771 -0.1589
000020 8b ac 6d 27 81 b1 0e b2 ff 25 e2 ad 1b b0 05 ad
       -0.071 0.029 -0.172 -0.1892 0.02342 -0.0919 -0.1283 -0.0784
000030 81 24 e7 b0 d2 ae e1 a8 38 b3 21 ac 0d af 5d b0
       0.0176 -0.1532 -0.10657 -0.03812 -0.2256 -0.0645 -0.11017 -0.1364
000040 3b 2c 09 ad 49 ad 98 30 f5 a5 a1 2d f8 ad 18 b0
       0.0661 -0.0787 -0.0826 0.1436 -0.02327 0.08795 -0.09326 -0.1279
000050 ca ac 00 ab 16 2f 38 b3 56 ab 7e 23 57 ad e6 ac
       -0.0748 -0.0547 0.1107 -0.2256 -0.0573 0.01463 -0.08344 -0.07654
000060 b8 2b 14 af d5 2c c0 b0 1e 2f 12 b0 8c 2e f2 af
       0.0603 -0.1106 0.0755 -0.1484 0.1112 -0.1272 0.1023 -0.12415
000070 80 af 58 a0 08 31 0d b0 64 ad 98 30 2e a8 8c 20
       -0.1172 -0.008484 0.1572 -0.1266 -0.0842 0.1436 -0.03265 0.00888
000080 b4 b2 99 ae 74 b0 ee 2d 48 29 b1 b1 8e 98 d2 a8
       -0.2095 -0.1031 -0.1392 0.09265 0.04126 -0.1779 -0.002224 -0.03766
000090 3f ad 34 b0 69 ad 60 2f 3a b0 4e b0 49 21 e2 28
       -0.082 -0.1313 -0.08453 0.11523 -0.1321 -0.1345 0.01032 0.03815
0000a0 7a 2c 8b 26 75 a6 a9 ae 26 a9 69 ac aa 30 fe b1
       0.06995 0.02556 -0.02522 -0.10406 -0.04022 -0.0689 0.1458 -0.1873
0000b0 8e af 66 b0 c4 a5 a9 2f 43 31 ef ae 35 25 8b 2e
       -0.11804 -0.1375 -0.02252 0.1197 0.1644 -0.10834 0.02034 0.10223
0000c0 53 2d fd 2f fe a1 23 b0 d3 2b a5 ad 1b 2c ad ac
       0.0832 0.1248 -0.0117 -0.1293 0.06113 -0.0882 0.06415 -0.07306
0000d0 0b 2b 96 31 6a 31 5f b1 a2 b0 93 af d2 af 39 30
       0.05502 0.1746 0.1692 -0.1678 -0.1448 -0.11835 -0.1222 0.132
0000e0 47 aa 7f b0 82 ad 71 af 30 2b 66 b2 d2 b0 9b b2
       -0.04904 -0.1405 -0.08606 -0.1163 0.05615 -0.2 -0.1506 -0.2064
0000f0 df 29 fa 2e 97 ae 7b 26 90 30 94 29 3d a8 9b 28
       0.04587 0.109 -0.10297 0.02531 0.1426 0.04358 -0.0331 0.03598
000100 43 a1 6e 2d 5f ab 86 30 fa 2c 29 ad 01 31 c1 2f
       -0.01028 0.08484 -0.0576 0.1414 0.07776 -0.0806 0.1564 0.12115
000110 71 ad f8 ab 19 2a e5 b0 88 2a 5e 24 09 2e 2d b0
       -0.085 -0.06226 0.04764 -0.153 0.05103 0.01706 0.0943 -0.1305

weight f2 [4]
000000 a2 3b 89 3b e0 3b 17 3c
       0.954 0.942 0.9844 1.022

bias f2 [4]
000000 2a 33 f1 b4 b7 ae 32 3c
       0.2239 -0.3088 -0.1049 1.049

running_mean f2 [4]
000000 24 b5 7f b1 00 b2 eb af
       -0.3213 -0.1718 -0.1875 -0.1237

running_var f2 [4]
000000 59 30 71 32 05 31 c6 31
       0.1359 0.2013 0.1569 0.1804

weight f2 [8, 8, 3, 3]
000000 fa b0 fd 24 77 19 a1 b0 bb a7 ce ad c3 ae 14 a9
       -0.1555 0.01949 0.002668 -0.1447 -0.0302 -0.0907 -0.10565 -0.03967
000010 d5 2c 64 a8 0a 2c ef 2e 3a 27 1c af 08 28 a1 97
       0.0755 -0.0343 0.0631 0.10834 0.02823 -0.1111 0.0315 -0.001863
000020 9b 29 02 b1 eb 2d 2a 2f 08 ae 62 a1 36 2d 24 ae
       0.0438 -0.1565 0.09247 0.11194 -0.09424 -0.01051 0.0814 -0.09595
000030 9b a2 33 21 7a 1f d5 31 0d 31 80 30 b6 28 f5 30
       -0.0129 0.010155 0.0073 0.1823 0.1578 0.1406 0.0368 0.1549
000040 7c ab 13 a9 4a 9c ea a3 63 2d 0e 2a 77 2c 53 2e
       -0.05847 -0.03964 -0.00419 -0.01546 0.08417 0.0473 0.06976 0.0988
000050 bf aa 89 26 f7 28 21 2b 18 2d 9a ab 29 aa 64 2c
       -0.0527 0.02553 0.0388 0.0557 0.0796 -0.0594 -0.04813 0.0686
000060 8c a0 7b aa 07 2e 34 2d 7b a8 86 a6 23 b0 04 af
       -0.00888 -0.05063 0.0942 0.0813 -0.035 -0.02548 -0.1293 -0.1096
000070 37 2a 94 a9 2a 30 1c ab 4b 21 50 28 57 2c 60 31
       0.04855 -0.04358 0.1301 -0.05554 0.01034 0.0337 0.0678 0.168
000080 f7 30 7b 2e 49 a2 7d a9 77 ae 7f 20 47 30 56 1f
       0.1552 0.10126 -0.012276 -0.04288 -0.101 0.00878 0.1337 0.007164
000090 d0 2b 57 a0 1c 30 3d 2f 63 ab 71 23 f9 30 86 2d
       0.06104 -0.00848 0.1284 0.1131 -0.0577 0.014534 0.1554 0.0863
0000a0 26 2c 49 a6 67 ac 87 af ae ae 39 2c a5 aa 32 ac
       0.0648 -0.02455 -0.0688 -0.1176 -0.1044 0.066 -0.0519 -0.06555
0000b0 82 ab 4b ad a3 a8 64 af 55 2a f1 29 82 ab d8 ac
       -0.05865 -0.0827 -0.03622 -0.1155 0.04947 0.04642 -0.05865 -0.0757
0000c0 36 2c d3 a4 aa 24 cb 28 e9 ac 86 22 f4 22 de 2e
       0.0658 -0.01884 0.01822 0.03745 -0.0767 0.01274 0.01358 0.1073
0000d0 6e ad c2 a4 bc 2e 08 b0 26 94 14 2e 74 ac 6d 2e
       -0.08484 -0.01859 0.1052 -0.126 -0.001013 0.095 -0.0696 0.1004
0000e0 6a 2d 63 2c ab a6 63 2d d5 ad 50 24 e4 2e 48 2e
       0.0846 0.06854 -0.02605 0.08417 -0.0911 0.01685 0.10767 0.09814
0000f0 af 2e c6 30 3c a5 e6 2d 43 2b 17 2d b2 27 c0 aa
       0.10443 0.1492 -0.02045 0.09216 0.05673 0.0795 0.03006 -0.05273
000100 f4 ad 15 31 75 20 4a 31 ab b0 83 a8 0a 25 86 2c
       -0.093 0.1588 0.008705 0.1653 -0.1459 -0.03525 0.01968 0.0707
000110 fa 23 17 93 22 9c 97 a5 18 28 92 aa af a7 e0 ae
       0.01558 -0.0008655 -0.004036 -0.02184 0.03198 -0.05133 -0.03001 -0.1074
000120 81 2e 81 2d f1 ab 2a a7 10 ad 22 2c 84 2b 5f 30
       0.1016 0.086 -0.06204 -0.02798 -0.0791 0.0646 0.05872 0.1366
000130 cd 2a 45 29 49 27 7a b0 12 a8 56 b0 d8 a5 29 af
       0.05313 0.04117 0.02846 -0.1399 -0.0318 -0.1355 -0.02283 -0.1119
000140 1c af 5a b2 36 ad bb 2b bb 29 32 2a 98 2f 7d a4
       -0.1111 -0.1985 -0.0814 0.0604 0.04477 0.0484 0.11865 -0.01753
000150 95 29 7d af cc a3 03 29 0c 2f ec 2f 1d 32 04 2b
       0.0436 -0.117 -0.01523 0.03915 0.1101 0.1238 0.191 0.0548
000160 08 2f 28 ad 9c ad 58 9a b4 28 a7 ad f6 aa d3 2a
       0.10986 -0.08057 -0.08765 -0.003098 0.03674 -0.0883 -0.05438 0.0533
000170 55 a8 a5 2c db 30 d5 2c c1 aa db ad 89 ad 23 a4
       -0.03384 0.0726 0.1517 0.0755 -0.05276 -0.0915 -0.0865 -0.01616
000180 35 30 d5 9d 97 aa f3 a2 51 21 8b af de ad 00 31
       0.1315 -0.005695 -0.05148 -0.01357 0.01038 -0.11786 -0.0917 0.1562
000190 4c a5 04 2c de 2e 81 26 59 2a 9d 30 62 28 cb 27
       -0.02069 0.06274 0.1073 0.0254 0.0496 0.1442 0.03424 0.03044
0001a0 07 9e ef b0 e1 2b a8 24 a6 a6 f8 ac e8 0f 0b b1
       -0.005886 -0.1542 0.06155 0.01819 -0.02597 -0.07764 0.0004826 -0.1576
0001b0 d8 1c 6e a8 ce 1e 99 2d b1 a8 3b 27 9c a4 d9 ad
       0.00473 -0.0346 0.006645 0.08746 -0.03665 0.02824 -0.018 -0.0914
0001c0 7f 29 d3 ae fa 2c 22 2c 10 30 06 a5 e6 27 d0 2a
       0.04294 -0.1066 0.07776 0.0646 0.127 -0.01962 0.03085 0.05322
0001d0 9c 31 ae 30 44 ac 68 af 89 af 96 ad 35 2b 88 10
       0.1753 0.1462 -0.06665 -0.1157 -0.11774 -0.0873 0.0563 0.000553
0001e0 94 2e 83 2c 23 a1 9f ad 1b 2f 95 2c 6f 29 4f ab
       0.1028 0.0705 -0.01003 -0.0878 0.111 0.0716 0.04245 -0.0571
0001f0 90 2d 09 29 c3 2f 38 2d 43 2c 83 ad 9a ab 06 2c
       0.0869 0.03934 0.1213 0.08154 0.0666 -0.0861 -0.0594 0.06287

weight f2 [8]
000000 1b 3c 01 3c e6 3b e9 3b c2 3b b5 3b cd 3b 20 3c
       1.026 1.001 0.9873 0.989 0.9697 0.9634 0.975 1.031

bias f2 [8]
000000 56 3b 7e 35 17 39 9e 3d 5d 31 50 bd 1e 33 cf b0
       0.917 0.3433 0.636 1.404 0.1676 -1.328 0.2224 -0.1503

running_mean f2 [8]
000000 45 38 01 3c f0 31 c9 b4 80 b9 0c bd 0e 38 a4 3c
       0.5337 1.001 0.1855 -0.299 -0.6875 -1.262 0.507 1.16

running_var f2 [8]
000000 b2 39 1c 3b f2 39 09 3a dd 34 a0 3d 37 31 99 3b
       0.712 0.8887 0.743 0.7544 0.304 1.406 0.163 0.9497

weight f2 [8, 8, 1, 1]
000000 72 34 7f 2c a8 2e 9f b4 12 b0 3d 27 a8 2b 08 af
       0.2778 0.07025 0.104 -0.2888 -0.1272 0.02827 0.0598 -0.10986
000010 22 b6 16 b0 8c 2d 1d 34 d2 b4 9a 30 c6 b5 5a b6
       -0.3833 -0.1277 0.0867 0.257 -0.3013 0.1438 -0.3608 -0.397
000020 29 b3 08 a4 3a 2a 80 b3 80 34 e1 34 66 a1 5b 35
       -0.2238 -0.01575 0.04865 -0.2344 0.2812 0.305 -0.010544 0.3347
000030 61 b2 1b b0 fa ae ef a9 a9 b2 ee b4 af 2f 78 30
       -0.1993 -0.1283 -0.109 -0.04636 -0.2081 -0.308 0.12006 0.1396
000040 e1 35 3f b0 9b 30 6b b0 9a 2c 4e a8 c7 34 98 2e
       0.3674 -0.1327 0.1439 -0.1381 0.0719 -0.03363 0.2986 0.103
000050 65 34 4f 34 ac a1 b3 34 27 b4 9f 34 bf 34 8e 36
       0.2747 0.2693 -0.01108 0.2937 -0.2595 0.2888 0.2966 0.4097
000060 17 b3 d3 b1 c5 25 78 30 62 30 d6 30 4f 34 69 ac
       -0.2216 -0.182 0.02254 0.1396 0.137 0.1511 0.2693 -0.0689
000070 c4 ad 16 30 b9 2e a5 b4 65 21 42 b4 e9 1c 88 b1
       -0.0901 0.1277 0.10504 -0.2903 0.01054 -0.266 0.004795 -0.1729

weight f2 [8]
000000 c9 3b 97 3b 03 3c 50 3b d7 3b 15 3c a0 3b 1d 3c
       0.973 0.9487 1.003 0.914 0.98 1.0205 0.953 1.028

bias f2 [8]
000000 b8 38 9b be ed b9 a9 30 d2 3c d6 3c d6 b8 37 b9
       0.59 -1.651 -0.7407 0.1456 1.205 1.209 -0.6045 -0.652

running_mean f2 [8]
000000 47 af 55 b1 de b6 c1 b2 88 33 ac 38 cf 29 3e b4
       -0.1137 -0.1666 -0.4292 -0.211 0.2354 0.584 0.04538 -0.2651

running_var f2 [8]
000000 02 32 c7 37 5b 31 78 2e 9c 34 77 3a 1b 2e 8f 2e
       0.1877 0.486 0.1674 0.1011 0.288 0.808 0.0954 0.1025

weight f2 [8, 12, 1, 1]
000000 b8 33 a8 b3 fe a7 1c b4 32 2d 6b b3 f1 2e d8 ae
       0.2412 -0.2393 -0.03122 -0.2568 0.0812 -0.2318 0.10846 -0.10693
000010 8e b0 69 b1 93 25 fa 34 b3 33 cf 28 da b4 b2 ac
       -0.1423 -0.1691 0.02177 0.311 0.2406 0.03757 -0.3032 -0.07336
000020 63 ae 0b a4 28 31 58 33 5e 31 c9 2d 5d ad 0a 13
       -0.0998 -0.0158 0.1611 0.2295 0.1677 0.0904 -0.0838 0.0008593
000030 3c 26 eb af 66 a2 cf aa 14 b5 08 33 e6 ac 38 b3
       0.02435 -0.1237 -0.0125 -0.0532 -0.3174 0.2197 -0.07654 -0.2256
000040 40 33 01 b1 ab 2d 40 33 aa 26 c9 26 e0 30 9a 31
       0.2266 -0.1564 0.08856 0.2266 0.02603 0.0265 0.1523 0.175
000050 65 ad b2 b1 08 a1 12 32 08 29 5f 33 25 2c 1c 2c
       -0.0843 -0.178 -0.00983 0.1897 0.0393 0.2303 0.06476 0.0642
000060 73 a7 9c 9a ce b2 23 b2 70 a2 b6 2f 97 32 29 25
       -0.0291 -0.003227 -0.2126 -0.1918 -0.01257 0.1205 0.2059 0.02016
000070 e5 30 b6 2c 7b b4 d9 b4 8a b2 25 2a 41 b0 59 83
       0.153 0.0736 -0.28 -0.303 -0.2043 0.048 -0.1329 -5.11e-05
000080 65 a8 72 30 d8 2f 6a 35 38 34 ec b1 8b 27 23 2c
       -0.03433 0.1389 0.12256 0.3384 0.2637 -0.185 0.02946 0.06464
000090 b0 33 9c ac 4b b0 04 b2 61 30 ba ac 59 b0 c8 32
       0.2402 -0.072 -0.1342 -0.188 0.1368 -0.07385 -0.1359 0.2119
0000a0 4d 34 51 a9 51 b4 a5 32 1c b0 65 b1 ff b3 d7 b0
       0.2688 -0.04153 -0.2698 0.2076 -0.1284 -0.1686 -0.2499 -0.1512
0000b0 b2 b3 5c b2 8c b4 20 ae 2d 2d c0 b1 f4 a7 f8 af
       -0.2405 -0.1987 -0.2842 -0.0957 0.0809 -0.1797 -0.03107 -0.1245

weight f2 [8]
000000 79 3c 1b 3c fd 3b 29 3c 2d 3c 06 3c 2d 3b 36 3c
       1.118 1.026 0.9985 1.04 1.044 1.006 0.897 1.053

bias f2 [8]
000000 4c 37 8c 3c 84 28 da 3f 8a b9 d0 37 8c 28 89 3b
       0.456 1.137 0.03528 1.963 -0.6924 0.4883 0.03552 0.942

running_mean f2 [8]
000000 fb b5 50 36 5f 34 de 36 29 a5 60 2f 09 37 f9 b9
       -0.3738 0.3945 0.2732 0.4292 -0.02016 0.11523 0.4397 -0.7466

running_var f2 [8]
000000 01 33 7e 32 b7 31 91 2e 37 33 02 32 0e 3a e1 38
       0.2189 0.2029 0.1786 0.1026 0.2255 0.1877 0.757 0.61

weight f2 [4, 4, 3, 3]
000000 22 a2 26 2f 24 ac b6 b0 0e b1 8b b0 e4 2c 01 2c
       -0.01198 0.1117 -0.0647 -0.1472 -0.158 -0.142 0.0764 0.06256
000010 10 2d cd aa 84 2c 77 b1 b4 2d a5 32 69 b0 d4 a7
       0.0791 -0.05313 0.07056 -0.1708 0.0891 0.2076 -0.1378 -0.03058
000020 de 30 de a4 bf ad e8 2d d2 9f 2a 16 f6 aa 47 2e
       0.1521 -0.01901 -0.0898 0.0923 -0.007637 0.001505 -0.05438 0.0981
000030 83 2c 49 a2 f0 a8 47 30 b0 31 6a 27 16 aa c1 2d
       0.0705 -0.012276 -0.03857 0.1337 0.1777 0.02896 -0.04755 0.0899
000040 73 a1 47 31 d1 ac ba 30 b2 ac aa 2d 90 30 10 2a
       -0.01064 0.1649 -0.07526 0.1477 -0.07336 0.0885 0.1426 0.04736
000050 f3 22 c2 30 24 b0 c7 ae 85 b0 5c ae 73 29 1e a8
       0.01357 0.1487 -0.1294 -0.1059 -0.1412 -0.09937 0.04257 -0.03217
000060 50 9e 72 20 71 31 e9 b0 92 ad a1 2d ec a5 7d 31
       -0.006165 0.00868 0.17 -0.1534 -0.08704 0.08795 -0.02313 0.1715
000070 0e ac d5 aa cc ad 6a 28 61 26 06 af 93 2c a9 2a
       -0.06335 -0.05338 -0.0906 0.0345 0.02492 -0.10974 0.0715 0.05203
000080 14 a8 87 a9 88 2f a9 2e 22 2a 95 2e 0a 31 a3 a0
       -0.03186 -0.04318 0.1177 0.10406 0.0479 0.10284 0.1575 -0.009056
000090 7e ad d5 a9 8e af 8c 2b 43 9e 76 ae b5 24 8f 9b
       -0.0858 -0.04556 -0.11804 0.05896 -0.006115 -0.10095 0.01839 -0.00369
0000a0 c2 30 28 30 36 af 35 30 91 27 1c 2c a7 29 6e 24
       0.1487 0.1299 -0.1127 0.1315 0.02956 0.0642 0.04416 0.0173
0000b0 a7 2c 19 34 3c b1 3a ac 32 b0 39 aa 28 17 4f 2c
       0.0727 0.256 -0.1636 -0.06604 -0.1311 -0.0486 0.001747 0.0673
0000c0 ee ab ce 2f 7a 2f 01 ac 03 a4 a3 af 7e 29 cb b0
       -0.06195 0.12195 0.1168 -0.06256 -0.01567 -0.1193 0.0429 -0.1498
0000d0 e5 b0 1a a5 53 ae a3 30 c7 aa 19 1a 9a a4 03 2f
       -0.153 -0.01993 -0.0988 0.1449 -0.05295 0.002977 -0.01797 0.10956
0000e0 59 af 5b ac 6f b1 39 b1 5d 30 21 b1 58 9f c6 a4
       -0.1148 -0.06805 -0.1698 -0.1632 0.1364 -0.1603 -0.00717 -0.01865
0000f0 1b 2a 4b 2c b6 af 33 30 bf b0 a0 28 30 a6 5a a8
       0.0477 0.0671 -0.1205 0.1312 -0.1483 0.03613 -0.02417 -0.034
000100 4d 31 50 30 14 9e db ae 5b 2f 36 2e 02 25 1c af
       0.1656 0.1348 -0.005936 -0.1071 0.1149 0.09705 0.01956 -0.1111
000110 a3 a8 64 31 40 2c a7 a9 25 b0 22 b0 78 28 2b ad
       -0.03622 0.1685 0.0664 -0.04416 -0.1295 -0.1292 0.0349 -0.08075

weight f2 [4]
000000 a7 3b ae 3b 31 3c 0a 3c
       0.9565 0.96 1.048 1.01

bias f2 [4]
000000 37 b9 2d ba 52 40 17 ba
       -0.652 -0.772 2.16 -0.761

running_mean f2 [4]
000000 99 b0 f5 ae 22 38 14 b8
       -0.1437 -0.1087 0.5166 -0.51

running_var f2 [4]
000000 20 2f 02 31 fe 36 a9 33
       0.1113 0.1565 0.437 0.2394

weight f2 [4, 4, 3, 3]
000000 78 aa 1b 2e ef aa f2 a8 54 a8 20 30 16 2f 5a 30
       -0.05054 0.0954 -0.05417 -0.03864 -0.0338 0.1289 0.1107 0.136
000010 48 2e ea b1 d1 ae a3 22 d2 ac 84 2c 7c a8 43 2f
       0.09814 -0.1848 -0.1065 0.01296 -0.0753 0.07056 -0.03503 0.11346
000020 8a 31 6f ad 46 31 5c 2d 25 b0 65 32 89 ae 85 ad
       0.1731 -0.0849 0.1648 0.08374 -0.1295 0.1998 -0.1021 -0.08624
000030 18 ae 46 a8 8a a6 d7 a0 be b1 af ac 95 2f 8d 30
       -0.0952 -0.0334 -0.02554 -0.00945 -0.1794 -0.0732 0.11847 0.1422
000040 8a 2e 26 24 bf 22 0a b1 7d 2f 33 b0 0d ad 0f a9
       0.1022 0.0162 0.013176 -0.1575 0.117 -0.1312 -0.0789 -0.03952
000050 4e 2e 0c a9 19 ac bd a7 73 b1 90 aa 43 1e 72 ab
       0.0985 -0.03943 -0.064 -0.03023 -0.1703 -0.05127 0.006115 -0.05817
000060 52 ad 36 94 38 b3 06 b1 5f 2a 29 ad e5 23 65 2e
       -0.0831 -0.001028 -0.2256 -0.157 0.04977 -0.0806 0.01542 0.0999
000070 6d 2f fd a5 4b ae ff aa 79 2d 35 a5 d1 2d c9 b0
       0.116 -0.02339 -0.0983 -0.05466 0.0855 -0.02034 0.0909 -0.1495
000080 84 ac 70 2f df 1e 52 19 f3 9a ec af 7f ad 23 28
       -0.07056 0.1162 0.00671 0.002598 -0.003393 -0.1238 -0.0859 0.03232
000090 38 a4 29 ac 4b a3 e1 2c 41 24 b4 ae f2 9f 22 ac
       -0.01648 -0.065 -0.014244 0.07623 0.01662 -0.10474 -0.00776 -0.0646
0000a0 0a 2c 7e b0 cb 2e eb 29 1a b1 cd 2d 32 b2 6c 17
       0.0631 -0.1404 0.10614 0.04623 -0.1594 0.09064 -0.1936 0.001812
0000b0 fc ad 2f b2 c1 28 c1 ac a8 30 78 ae 73 31 a1 30
       -0.0935 -0.1932 0.03714 -0.0743 0.1455 -0.1011 0.1703 0.1447
0000c0 8c 31 2b 24 c6 a8 7b b0 ed 2e 85 ae 9e a0 10 1c
       0.1733 0.01628 -0.0373 -0.14 0.1082 -0.10187 -0.00902 0.003967
0000d0 2c 2d 9a b0 b2 2e f2 b0 4a 30 4f aa ed ab d1 1e
       0.0808 -0.1438 0.1046 -0.1545 0.134 -0.0493 -0.06192 0.006657
0000e0 45 2a fd a2 d1 ae 17 32 d7 31 31 29 43 31 06 2c
       0.04898 -0.01365 -0.1065 0.1903 0.1825 0.04056 0.1644 0.06287
0000f0 84 24 77 ad 9e ac 3a af d7 18 d3 30 8e ac c8 a5
       0.01764 -0.0854 -0.07214 -0.1129 0.002363 0.1508 -0.07117 -0.02258
000100 dc a5 33 ac a1 27 15 32 a2 31 02 31 59 a4 c9 a8
       -0.02289 -0.0656 0.0298 0.1901 0.176 0.1565 -0.01698 -0.03738
000110 e7 2a 16 af 4e af 21 30 2f 22 64 af e6 2f 56 22
       0.05392 -0.1107 -0.11414 0.129 0.01208 -0.1155 0.1234 0.012375

weight f2 [4]
000000 45 3c 4f 3c 23 3c fa 3b
       1.067 1.077 1.034 0.997

bias f2 [4]
000000 17 3b 31 3d 3e 3d f3 3b
       0.886 1.298 1.311 0.9937

running_mean f2 [4]
000000 2d aa 5e 38 fc 3b 0d 39
       -0.04825 0.546 0.998 0.6313

running_var f2 [4]
000000 15 2f 2e 2e a8 33 19 34
       0.11066 0.09656 0.2393 0.256

weight f2 [16, 8, 3, 3]
000000 44 a4 54 b1 c6 a5 79 21 28 aa a3 ad 15 2c 82 29
       -0.01666 -0.1665 -0.02255 0.01069 -0.0481 -0.0881 0.0638 0.04303
000010 65 9a 06 28 5b 26 0b 2e c3 10 98 a7 a0 2c a4 29
       -0.003122 0.03143 0.02483 0.0944 0.0005813 -0.02966 0.07227 0.04407
000020 63 2b 5b 21 95 15 b8 25 92 28 e2 a8 b6 ac b5 2a
       0.0577 0.01046 0.001363 0.02234 0.0357 -0.03815 -0.0736 0.0524
000030 42 a8 9f 27 c9 28 a0 26 b2 2b 00 a6 c1 2d 91 25
       -0.03326 0.02977 0.03738 0.02588 0.06012 -0.02344 0.0899 0.02174
000040 8c 26 6b 2e 73 2f 6b ae c6 a5 1d ad 28 a9 a5 2d
       0.02557 0.1003 0.1164 -0.1003 -0.02255 -0.0799 -0.04028 0.0882
000050 e5 ae 7f ae 6e 2d 09 ab d8 2e 5c 2b c2 2b 13 2f
       -0.1077 -0.1015 0.08484 -0.05496 0.10693 0.0575 0.0606 0.11053
000060 d8 ad f1 2d ef 25 11 aa b0 2b 50 a7 a9 aa 7a 9e
       -0.0913 0.09283 0.02318 -0.0474 0.06006 -0.02856 -0.05203 -0.006325
000070 77 a9 f1 2f 30 2f 6c 9e 24 ae 2f 9e 4e 22 19 28
       -0.0427 0.1241 0.1123 -0.00627 -0.09595 -0.00604 0.012314 0.032
000080 dd aa 28 a7 f0 a9 85 b0 c5 b0 81 b1 cc ac 7f a6
       -0.05362 -0.02795 -0.0464 -0.1412 -0.149 -0.172 -0.07495 -0.02538
000090 5e 26 eb 2f 9c aa c9 ab c5 29 f2 a8 80 92 e7 2f
       0.02487 0.1237 -0.05164 -0.06082 0.04507 -0.03864 -0.0007935 0.1235
0000a0 ce 9f 54 2d 7c 1c 06 ac 70 2a 1c ae b8 a5 5d 25
       -0.00762 0.08325 0.00438 -0.06287 0.0503 -0.09546 -0.02234 0.02095
0000b0 6f 2b 76 af 3f 23 b2 a9 e8 2b aa 21 b3 1f 27 28
       0.05807 -0.1166 0.01415 -0.0445 0.06177 0.01106 0.00752 0.03244
0000c0 c9 a7 8f a4 e7 2b d8 ae 10 af f1 18 aa ab bc 15
       -0.03041 -0.0178 0.06174 -0.10693 -0.11035 0.002413 -0.05988 0.0014
0000d0 18 2e c3 aa 71 b0 c5 ac 04 2d af a9 5a ac c2 25
       0.0952 -0.05283 -0.1388 -0.0745 0.07837 -0.0444 -0.068 0.02249
0000e0 ab a3 0d b0 ae 2d 2d 2c 4d 2e 4e 2b 65 a8 9e a9
       -0.01498 -0.1266 0.08875 0.06525 0.09845 0.05707 -0.03433 -0.04388
0000f0 30 24 60 ac f8 a5 b5 ae 89 ac 1a 20 3a a4 40 ac
       0.01636 -0.06836 -0.02332 -0.1048 -0.07086 0.00801 -0.01651 -0.0664
000100 8c af 98 29 64 aa a9 b0 5b 2f 86 2c cd ac 2c ac
       -0.1179 0.0437 -0.04993 -0.1456 0.1149 0.0707 -0.075 -0.0652
000110 4a 30 89 1b c8 aa b4 2c 0c a6 65 25 38 aa d2 ac
       0.134 0.00368 -0.05298 0.0735 -0.02362 0.02107 -0.04858 -0.0753
000120 f8 b0 c6 ae 79 b0 b8 28 03 9a b5 aa a4 2c 68 ad
       -0.1553 -0.10583 -0.1398 0.03687 -0.002935 -0.0524 0.0725 -0.0845
000130 b1 ab 28 27 e5 ae c5 2a da 28 55 ab 97 ae ce 2b
       -0.0601 0.02795 -0.1077 0.0529 0.0379 -0.05728 -0.10297 0.06097
000140 ff 2b ad a5 39 af bd ac 24 1d 31 26 0d 2d 67 2a
       0.06247 -0.02217 -0.11285 -0.07404 0.00502 0.02419 0.0789 0.05002
000150 41 29 db 2c 85 2d 1d 30 a2 2f 25 ac 08 23 82 29
       0.04105 0.07587 0.08624 0.1285 0.11926 -0.06476 0.01373 0.04303
000160 5d 2c b7 2d c1 28 97 aa f1 ab 77 30 a3 a6 68 1b
       0.0682 0.0893 0.03714 -0.05148 -0.06204 0.1395 -0.02592 0.003616
000170 e9 ab 09 ab 98 29 9c 2b a6 a8 b3 a6 de 2e 57 a8
       -0.0618 -0.05496 0.0437 0.05945 -0.03632 -0.02617 0.1073 -0.0339
000180 2e ae 24 a4 c9 2e 6a 28 47 a3 cd aa 41 29 74 ad
       -0.09656 -0.01617 0.106 0.0345 -0.01421 -0.05313 0.04105 -0.0852
000190 30 2c 7f 29 4a 2a 93 24 9a ab 58 2c 05 28 93 ae
       0.0654 0.04294 0.04913 0.01787 -0.0594 0.0679 0.0314 -0.1027
0001a0 a2 b0 7e ab ce 16 a3 b0 ab 27 f6 ae 42 b1 8c 9c
       -0.1448 -0.05853 0.001661 -0.1449 0.02995 -0.10876 -0.1643 -0.00444
0001b0 c9 ac 50 16 ea a1 3d aa 33 b0 41 af ee 26 a0 a9
       -0.07477 0.001541 -0.01155 -0.04874 -0.1312 -0.11334 0.02707 -0.04395
0001c0 49 ac b6 22 d1 ac f3 2a d2 2c bd 30 39 ac 73 23
       -0.06696 0.01311 -0.07526 0.0543 0.0753 0.1481 -0.066 0.01455
0001d0 3b 2e 9d 30 e1 a8 a5 2e b9 2c e5 2e dd ad bb 28
       0.09735 0.1442 -0.03812 0.1038 0.0738 0.1077 -0.0916 0.03696
0001e0 35 9c ba a9 ce 2c 99 30 61 a8 87 2e 99 a0 10 2c
       -0.00411 -0.04474 0.0751 0.1437 -0.0342 0.102 -0.00898 0.0635
0001f0 0f 2e d0 2c 55 ad 05 a7 04 2c b2 ad 97 25 3d 9d
       0.09467 0.0752 -0.0833 -0.02742 0.06274 -0.089 0.02184 -0.005116

weight f2 [16]
000000 09 3c e9 3b 1c 3c f2 3b 0b 3c ff 3b 8a 3c f2 3b
       1.009 0.989 1.027 0.993 1.011 0.9995 1.135 0.993
000010 ce 3b e8 3b fe 3b 18 3c 1f 3c c6 3b e5 3b da 3b
       0.9756 0.9883 0.999 1.023 1.03 0.9717 0.987 0.9814

bias f2 [16]
000000 e1 3c bc bd c5 3f 88 2f 02 3a 3e 39 ab 3a f2 35
       1.22 -1.434 1.942 0.1177 0.751 0.6553 0.8335 0.3716
000010 f9 35 d0 34 6f 34 ca 38 e9 b4 7e b6 d4 38 a9 ba
       0.3733 0.3008 0.277 0.5986 -0.307 -0.4058 0.6035 -0.8325

running_mean f2 [16]
000000 76 35 b0 bb 4d ad 70 38 ca 38 3e 39 d9 b7 02 28
       0.3413 -0.961 -0.0828 0.5547 0.5986 0.6553 -0.4905 0.0313
000010 3d bc 0d 36 10 37 ef 36 20 34 d7 20 e4 b3 0f b1
       -1.06 0.3782 0.4414 0.4333 0.2578 0.00945 -0.2466 -0.1581

running_var f2 [16]
000000 44 39 d0 36 5f 38 31 3a 6b 35 53 3a 43 3f 6a 39
       0.658 0.4258 0.5464 0.774 0.3386 0.7905 1.815 0.677
000010 e0 34 66 37 da 37 f2 36 f4 36 28 3a f3 3b 49 37
       0.3047 0.4624 0.4907 0.434 0.4346 0.7695 0.9937 0.4553

weight f2 [16, 16, 1, 1]
000000 0c 31 a8 b0 e9 b2 4b 29 9e ae ce af c5 98 e2 b3
       0.1577 -0.1455 -0.216 0.04135 -0.1034 -0.12195 -0.002329 -0.2463
000010 42 33 97 24 11 b0 d7 33 7d 2a 46 24 b5 ae 26 32
       0.2268 0.01793 -0.1271 0.245 0.0507 0.0167 -0.1048 0.1921
000020 bd ac 8d 32 a0 a6 21 2e 6b 31 c7 b2 7a b2 37 b4
       -0.07404 0.2047 -0.02588 0.09576 0.1693 -0.2118 -0.2024 -0.2634
000030 b6 31 a0 33 99 ae fd ae 9d 2c 68 2e ac 26 ff a8
       0.1785 0.2383 -0.1031 -0.1092 0.0721 0.1001 0.02606 -0.03903
000040 06 b2 86 32 18 b2 48 b4 59 ac 20 26 8a 32 1b 31
       -0.1882 0.2039 -0.1904 -0.2676 -0.06793 0.02393 0.2043 0.1595
000050 ea ac be ad ec b0 ea b0 56 af ce 2a b4 aa 58 b0
       -0.0768 -0.0897 -0.1538 -0.1536 -0.1146 0.05316 -0.05237 -0.1357
000060 55 b1 98 af d5 af 18 b2 20 a6 b0 2e c6 b1 f1 a0
       -0.1666 -0.11865 -0.1224 -0.1904 -0.02393 0.1045 -0.1804 -0.00965
000070 33 a9 94 ac c9 ae cc ad 0a 28 64 b1 75 2b 71 33
       -0.04062 -0.07153 -0.106 -0.0906 0.03156 -0.1685 0.05826 0.2325
000080 dc 32 8f ae 39 2f 5b b3 a0 34 c4 b1 07 b4 38 b4
       0.2144 -0.1025 0.11285 -0.2299 0.289 -0.1802 -0.2517 -0.2637
000090 84 b3 31 1c 12 a4 66 2c f2 ab a5 1d f0 ad 21 b0
       -0.2349 0.004093 -0.0159 0.0687 -0.06207 0.005512 -0.0928 -0.129
0000a0 b0 b1 ec 30 4a ae a7 1f 55 30 87 ac 89 ae f2 b1
       -0.1777 0.1538 -0.09827 0.007473 0.1354 -0.07074 -0.1021 -0.1858
0000b0 a5 b1 e5 30 1f a9 b4 31 2a 28 95 1a d1 b2 ca a1
       -0.1764 0.153 -0.04 0.1782 0.03253 0.003214 -0.213 -0.01131
0000c0 46 ae 08 b0 6d ae 9a a1 0b b3 62 24 a5 31 5b 23
       -0.098 -0.126 -0.1004 -0.01094 -0.2201 0.01712 0.1764 0.014366
0000d0 05 34 d1 2d ea b2 6a ae 74 ae 1d 28 44 a9 5b 31
       0.2512 0.0909 -0.2161 -0.1002 -0.1008 0.03214 -0.04114 0.1674
0000e0 2d a6 85 b0 51 b0 fa b2 67 ad b2 2d 1e a4 11 b4
       -0.02412 -0.1412 -0.1349 -0.218 -0.0844 0.089 -0.01608 -0.2542
0000f0 63 b3 c8 2d 60 b3 b1 b2 bb b0 bf 32 3a ae e0 ae
       -0.2308 0.09033 -0.2305 -0.2091 -0.1478 0.2108 -0.0973 -0.1074
000100 fa b1 0c 31 20 a8 c5 28 2c 2b 88 28 a8 30 22 9b
       -0.1868 0.1577 -0.03223 0.03726 0.05603 0.0354 0.1455 -0.003483
000110 bc 26 09 a4 66 b2 03 ab 1f 32 0c b2 60 b2 d3 b3
       0.0263 -0.01576 -0.2 -0.05478 0.1913 -0.189 -0.1992 -0.2445
000120 e4 26 cf b2 c2 af b9 33 85 31 4f 31 e9 26 0a b3
       0.02692 -0.2128 -0.1212 0.2413 0.1725 0.1659 0.027 -0.22
000130 be af a7 b2 08 af 6d 2d 4a af 09 34 03 b1 52 b3
       -0.121 -0.2079 -0.10986 0.0848 -0.1139 0.2522 -0.1566 -0.2288
000140 2c 34 b7 b1 2d 34 f3 2e 12 b1 41 34 f6 af 3f af
       0.2607 -0.1786 0.261 0.1086 -0.1584 0.2659 -0.1244 -0.1132
000150 20 b1 0f b3 c8 2d 4d b2 09 28 8b a4 ea 2f 3e ac
       -0.1602 -0.2206 0.09033 -0.1969 0.03152 -0.01775 0.12366 -0.0663
000160 e1 2c 78 a3 e8 2b 5c b0 4e b1 9a 2a 31 b1 7f af
       0.07623 -0.01459 0.06177 -0.1362 -0.1658 0.05157 -0.1622 -0.1171
000170 fb b3 85 ad 9c b1 ad 31 f8 31 ef 29 c0 32 ba 30
       -0.2494 -0.08624 -0.1753 0.1774 0.1865 0.04636 0.2109 0.1477
000180 8a b3 c1 aa 89 aa 5f b0 87 2d e5 ad 5a b0 d7 a7
       -0.2356 -0.05276 -0.05106 -0.1366 0.08636 -0.0921 -0.136 -0.03062
000190 a2 b2 55 31 54 31 74 33 dd ac 9e 2c a7 a7 34 b3
       -0.2073 0.1666 0.1665 0.2329 -0.076 0.07214 -0.02989 -0.2251
0001a0 0a 28 e7 b2 fb b0 c9 af a7 b1 c8 a0 4b 30 11 25
       0.03156 -0.2157 -0.1556 -0.12164 -0.1766 -0.00934 0.1342 0.01979
0001b0 f2 2f 1d a9 fc ad 23 b2 8e b2 82 ab 53 b2 f8 b0
       0.12415 -0.03995 -0.0935 -0.1918 -0.2048 -0.05865 -0.1976 -0.1553
0001c0 64 aa aa a9 eb b1 eb 2f cc 31 26 b2 01 32 78 22
       -0.04993 -0.04425 -0.1849 0.1237 0.1812 -0.1921 0.1876 0.012634
0001d0 1d a8 03 33 bf 1e 60 b4 67 33 87 a3 45 af 60 ab
       -0.03214 0.2191 0.006588 -0.2734 0.2313 -0.0147 -0.1136 -0.05762
0001e0 b2 33 18 28 5a 2e 3b 30 75 b0 88 a4 8a b2 6e 30
       0.2405 0.03198 0.09924 0.1322 -0.1393 -0.0177 -0.2043 0.1384
0001f0 94 ad a6 31 07 20 8c 32 1c b4 95 a9 06 2e 0a a9
       -0.08716 0.1765 0.007866 0.2046 -0.2568 -0.0436 0.0941 -0.03937

weight f2 [16]
000000 de 3b c9 3b 19 3c 18 3c c5 3b 02 3c d8 3b e8 3b
       0.9834 0.973 1.024 1.023 0.971 1.002 0.9805 0.9883
000010 a2 3b bd 3b cf 3b 75 3b b5 3b d5 3b 13 3c 1d 3c
       0.954 0.9673 0.976 0.932 0.9634 0.979 1.019 1.028

bias f2 [16]
000000 c0 3d 29 ba 38 3c a8 27 cd 3a 8d bc 2f b5 15 3a
       1.4375 -0.77 1.055 0.0299 0.85 -1.138 -0.324 0.7603
000010 fe be f2 3c 38 3c 19 b9 39 b8 e4 36 2e 3b 41 3c
       -1.748 1.236 1.055 -0.637 -0.528 0.4307 0.8975 1.063

running_mean f2 [16]
000000 9d b4 4b b5 fc b8 d1 b8 11 2d 2c b8 31 b4 16 b9
       -0.2883 -0.3308 -0.623 -0.602 0.07916 -0.5215 -0.262 -0.6357
000010 46 b3 3c ae 6f 38 9c ac d9 b4 ee b5 a6 b4 bd 36
       -0.2273 -0.0974 0.554 -0.072 -0.303 -0.3706 -0.2905 0.4211

running_var f2 [16]
000000 5e 33 15 30 30 3b d5 32 dc 31 43 30 cf 36 8b 35
       0.2302 0.1276 0.8984 0.2135 0.1831 0.1332 0.4255 0.3464
000010 a0 33 a2 32 96 39 0a 34 20 2f ff 38 49 34 d9 36
       0.2383 0.2073 0.698 0.2524 0.1113 0.6245 0.2678 0.428

weight f2 [16, 24, 1, 1]
000000 57 24 44 2e 5c b2 8c ac f8 2d 89 2c 2e 30 bd a9
       0.01695 0.0979 -0.1987 -0.07104 0.09326 0.07086 0.1306 -0.04483
000010 7b 2c 27 a6 3f 2b 50 a7 62 2f 46 a7 86 22 88 31
       0.07 -0.02403 0.0566 -0.02856 0.11536 -0.02841 0.01274 0.1729
000020 12 2d b4 2c 31 1c 74 b1 e6 24 15 ad 90 b3 c1 32
       0.0792 0.0735 0.004093 -0.1704 0.01913 -0.0794 -0.2363 0.211
000030 14 aa cf ae 57 b2 14 b3 5f 24 d9 ae 48 ab f1 af
       -0.0475 -0.1064 -0.1981 -0.2212 0.01707 -0.107 -0.0569 -0.1241
000040 75 30 38 ab e5 2d 3f 30 20 b1 01 31 ad ac 7b 31
       0.1393 -0.0564 0.0921 0.1327 -0.1602 0.1564 -0.07306 0.1713
000050 a0 2e 12 b4 e9 9e c5 29 e6 aa e2 30 43 b2 50 ae
       0.1035 -0.2544 -0.00675 0.04507 -0.0539 0.1526 -0.1957 -0.09863
000060 b7 32 23 32 d5 30 89 af e1 b0 81 b1 f0 a8 7d 30
       0.2098 0.1918 0.151 -0.11774 -0.1525 -0.172 -0.03857 0.1403
000070 4b 28 5e ac b2 2f 75 2f 40 af 89 ab 89 a7 b4 9c
       0.03354 -0.06824 0.12024 0.1165 -0.1133 -0.05887 -0.02943 -0.004593
000080 72 af 3f 2f 99 31 81 aa 28 2f 00 28 71 29 6e 2d
       -0.11633 0.1132 0.1749 -0.0508 0.1118 0.03125 0.0425 0.08484
000090 3e b0 2b ae 39 30 e6 ac d0 2f 82 af 58 30 f2 2e
       -0.1326 -0.0964 0.132 -0.07654 0.1221 -0.1173 0.1357 0.1085
0000a0 73 a6 58 2f b2 ae a5 20 c5 2b 0c 2c 34 2a 27 a8
       -0.02519 0.11475 -0.1046 0.00907 0.0607 0.06323 0.04846 -0.03244
0000b0 b9 ae fb 2e f7 2c 3e 2c 5a 2f 01 ad 1b ab a2 a5
       -0.10504 0.1091 0.0776 0.0663 0.11487 -0.0782 -0.0555 -0.022
0000c0 45 31 0d b1 32 b0 a3 ac a9 b0 ae b0 ec 2f 59 a2
       0.1647 -0.1578 -0.1311 -0.07245 -0.1456 -0.1462 0.1238 -0.0124
0000d0 39 b1 22 ab b9 a6 ec ad 50 b1 e8 2d e8 ab 0f 32
       -0.1632 -0.05573 -0.02626 -0.0925 -0.166 0.0923 -0.06177 0.1893
0000e0 ca b0 4c b1 8d ac a4 b0 85 30 e0 30 4a 31 d5 b0
       -0.1497 -0.1655 -0.0711 -0.145 0.1412 0.1523 0.1653 -0.151
0000f0 c2 2f 26 31 f0 ae 6a a4 ce 2e 5c 32 90 b3 b1 31
       0.1212 0.1609 -0.1084 -0.01724 0.1063 0.1987 -0.2363 0.1779
000100 0e ab e7 2b 73 b0 49 b1 50 ae 7c 2c 43 aa 22 2f
       -0.0551 0.06174 -0.139 -0.1652 -0.09863 0.07007 -0.04892 0.11145
000110 63 2e 19 2c 35 ab 48 ae 68 ad 53 b0 ab 32 34 a9
       0.0998 0.064 -0.0563 -0.09814 -0.0845 -0.1351 0.2084 -0.04065
000120 0a af 0a b2 77 2c d6 b0 4f aa de 2e 3f ad 87 2f
       -0.11 -0.1887 0.06976 -0.1511 -0.0493 0.1073 -0.082 0.1176
000130 5b ab 38 af 45 b3 dc 2a c0 b1 5c 30 bb 2d 7d 2c
       -0.05746 -0.1128 -0.2272 0.0536 -0.1797 0.1362 0.08954 0.0701
000140 6d ae 1b 32 22 b3 b6 b2 5a 2e 72 29 09 aa e1 ac
       -0.1004 0.1908 -0.2229 -0.2097 0.09924 0.04254 -0.04715 -0.07623
000150 5a b1 77 b1 7c ab c7 31 37 2d c6 25 6b ac 20 32
       -0.1672 -0.1708 -0.05847 0.1805 0.0815 0.02255 -0.06903 0.1914
000160 42 a4 5c 2e 73 22 80 2b cb 29 e1 30 20 2f d2 26
       -0.01663 0.09937 0.012596 0.0586 0.04526 0.1525 0.1113 0.02664
000170 5e 2b 1d aa ee 30 0b 2f 5a 30 31 a8 49 b1 7b 2b
       0.05756 -0.04776 0.154 0.11005 0.136 -0.03275 -0.1652 0.05844
000180 82 2c 37 2f 89 2e 02 2e b5 30 ae ab 9a 31 84 2d
       0.07043 0.11273 0.1021 0.0939 0.1471 -0.06 0.175 0.0862
000190 cb 2e 3f 30 01 b3 65 2c 52 31 f4 ad 53 28 59 b1
       0.10614 0.1327 -0.2189 0.06866 0.1663 -0.093 0.03378 -0.1671
0001a0 12 ae f0 19 59 2e be ae 2e b3 7a 30 d2 2e 48 ac
       -0.09485 0.0029 0.0992 -0.10535 -0.2244 0.1399 0.10657 -0.0669
0001b0 4a 30 cc 2e 9d ac bd 9d 58 2c a7 a8 30 ae 60 b0
       0.134 0.1062 -0.0721 -0.005604 0.0679 -0.03635 -0.0967 -0.1367
0001c0 cc ac 48 30 25 a8 57 ac ba 31 07 a8 fe 2f 2b 33
       -0.07495 0.1338 -0.03238 -0.0678 0.179 -0.03146 0.1249 0.224
0001d0 57 ac fe 2a 96 33 a2 ab d5 a5 83 9a 77 aa a8 2e
       -0.0678 0.05463 0.237 -0.05963 -0.02278 -0.00318 -0.0505 0.104
0001e0 4f 2d f1 af 29 2f 46 33 33 b0 7f b0 d5 af b9 31
       0.08295 -0.1241 0.1119 0.2273 -0.1312 -0.1405 -0.1224 0.1788
0001f0 9c b2 29 b1 ea 2d d0 ae 38 31 71 a0 76 2b e4 a4
       -0.2065 -0.1613 0.0924 -0.10645 0.1631 -0.008675 0.0583 -0.0191

weight f2 [16]
000000 53 3c cd 3b 03 3c 31 3c 00 3c e3 3b 0f 3c 23 3c
       1.081 0.975 1.003 1.048 1.0 0.986 1.015 1.034
000010 d5 3b 9d 3b 9a 3b 12 3c 0d 3c 21 3c 08 3c 1f 3c
       0.979 0.9517 0.95 1.018 1.013 1.032 1.008 1.03

bias f2 [16]
000000 b3 38 c4 bd 4f b1 dd 38 28 b9 3b b4 63 af a7 b0
       0.5874 -1.441 -0.1659 0.608 -0.6445 -0.2644 -0.1154 -0.1454
000010 86 37 93 b8 1e a4 43 27 7e 38 81 35 71 35 24 38
       0.4702 -0.572 -0.01608 0.02837 0.5615 0.344 0.34 0.5176

running_mean f2 [16]
000000 42 a6 b0 b9 7c 3b 7d 36 3d b5 e0 34 22 b7 dd 36
       -0.02444 -0.711 0.9355 0.4055 -0.3274 0.3047 -0.4458 0.429
000010 cc 34 9c 3b 99 38 0d b3 74 b4 c5 b4 f4 ad 58 b1
       0.2998 0.951 0.5747 -0.2203 -0.2783 -0.298 -0.093 -0.167

running_var f2 [16]
000000 3c 3a 9f 31 de 34 3c 34 eb 38 4f 30 ef 37 c5 36
       0.7793 0.1757 0.3042 0.2646 0.6147 0.1346 0.4958 0.423
000010 96 35 43 3a 5b 35 eb 30 3a 34 2f 35 78 32 39 36
       0.349 0.7827 0.3347 0.1537 0.2642 0.324 0.2021 0.389

weight f2 [8, 8, 3, 3]
000000 03 ad 31 9e 7c af a3 2b b3 a6 bd 22 e6 2a 4b 2a
       -0.0783 -0.006046 -0.11694 0.05966 -0.02617 0.01316 0.0539 0.04916
000010 6e ac 95 2a 8a ad a9 b0 10 29 5d af 45 ad 21 a2
       -0.0692 0.05142 -0.08655 -0.1456 0.03955 -0.11505 -0.08234 -0.01197
000020 4d 29 af a8 3a a4 e6 af e0 ab a1 2c ae a4 7a 2d
       0.0414 -0.0366 -0.01651 -0.1234 -0.06152 0.0723 -0.01828 0.0856
000030 98 ae 7d a9 35 ae 8d 2d 98 2d a1 2a 7f 30 88 2c
       -0.103 -0.04288 -0.097 0.08673 0.0874 0.0518 0.1405 0.0708
000040 c0 ad 67 ad d1 22 9b b0 3c 2e b9 2d 3e 2a e7 ae
       -0.08984 -0.0844 0.01331 -0.1439 0.0974 0.0894 0.04877 -0.10785
000050 e2 2d 26 9d 2b a9 c8 2c 2a 20 0e ab b0 9b ce ad
       0.0919 -0.005028 -0.04037 0.0747 0.00813 -0.0551 -0.003754 -0.0907
000060 19 2a d8 29 7e 21 2f 2e 3b b0 5d aa 11 ae c2 a4
       0.04764 0.04565 0.01073 0.0966 -0.1322 -0.0497 -0.0948 -0.01859
000070 09 b0 51 2f ba 2e d1 2c 9e a9 14 2e f6 a0 26 a7
       -0.1261 0.1143 0.1051 0.07526 -0.04388 0.095 -0.00969 -0.02792
000080 d2 2d 31 27 c4 ab ad 2f 4b ab 8e 22 92 b0 db a7
       0.09094 0.02809 -0.06067 0.11993 -0.05698 0.0128 -0.1428 -0.03069
000090 aa ad 28 ab 63 ac c6 a7 fa ab 0c ae b2 2a fd 29
       -0.0885 -0.0559 -0.06854 -0.03036 -0.06232 -0.0945 0.0523 0.04678
0000a0 fc af 35 2d f4 2c bd 2a d6 2f 3e 2b 85 2e 7a a9
       -0.12476 0.08136 0.0774 0.05264 0.12244 0.05658 0.10187 -0.0428
0000b0 8b 27 1d 30 9b a4 2e 2d 19 2f fa aa 0d a2 64 30
       0.02946 0.1285 -0.01799 0.08093 0.1109 -0.0545 -0.01182 0.1372
0000c0 bd 1a 25 2b 20 28 32 2c 1c a9 10 24 fa 2e 87 24
       0.00329 0.05582 0.03223 0.06555 -0.03992 0.01587 0.109 0.01768
0000d0 64 ac 28 a9 6a ad 4a aa 66 2c 06 1e 69 ae f2 ac
       -0.0686 -0.04028 -0.0846 -0.04913 0.0687 0.005882 -0.10016 -0.0773
0000e0 b9 a8 89 aa 6c a9 43 ae 46 2c c0 25 5a 29 3b 28
       -0.0369 -0.05106 -0.04236 -0.09784 0.0668 0.02246 0.0418 0.03305
0000f0 66 27 b3 2d 89 29 1a 28 5c a4 9b 2b 53 a9 4f 29
       0.0289 0.08905 0.04324 0.03204 -0.01703 0.05942 -0.0416 0.04147
000100 e9 ab d3 29 ae 2c 8c ab 30 2f d0 aa ae 30 18 2a
       -0.0618 0.0455 0.0731 -0.05896 0.1123 -0.05322 0.1462 0.0476
000110 b1 a8 5b 2d b7 af 95 a9 36 ab 6f aa 98 a9 de b0
       -0.03665 0.0837 -0.12054 -0.0436 -0.05634 -0.05026 -0.0437 -0.1521
000120 48 2f c2 24 0b a8 0e 28 42 a7 1c 29 25 19 ae ac
       0.1138 0.01859 -0.0316 0.03168 -0.02835 0.03992 0.002512 -0.0731
000130 b9 a5 55 31 de a3 c7 a6 32 29 70 a9 4d a6 e4 21
       -0.02235 0.1666 -0.015366 -0.02647 0.0406 -0.04248 -0.02461 0.011505
000140 46 ac a7 9e ef 30 44 2c cb a9 bf 30 16 ac c2 ac
       -0.0668 -0.006496 0.1542 0.06665 -0.04526 0.1483 -0.06384 -0.07434
000150 28 28 46 2f 0e 2f 9c 2c 93 ad 12 24 31 ae 3e 1d
       0.03247 0.11365 0.1102 0.072 -0.0871 0.0159 -0.09674 0.00512
000160 ee 2c f6 28 5a af 0d a6 67 af e6 28 e9 a5 ef aa
       0.077 0.03876 -0.11487 -0.02364 -0.11566 0.03827 -0.02309 -0.05417
000170 7f a7 db 2a 59 2a 75 2f 46 26 08 27 7a ac 60 a8
       -0.02928 0.05356 0.0496 0.1165 0.0245 0.02747 -0.06995 -0.03418
000180 65 a8 83 2c 73 21 ed ae c1 b0 31 af 1f b0 7a a8
       -0.03433 0.0705 0.01064 -0.1082 -0.1486 -0.11237 -0.1288 -0.03497
000190 9c 2c 9c ae d4 9b b3 1d ef ae 6b b0 0e a6 41 2c
       0.072 -0.1033 -0.003822 0.005566 -0.10834 -0.1381 -0.02365 0.06647
0001a0 1c ac 1e 99 eb ae 4c 1a 55 1d 75 2b 59 2b 11 2e
       -0.0642 -0.002499 -0.1081 0.003075 0.005207 0.05826 0.0574 0.0948
0001b0 05 a4 b2 2d 10 ac 94 aa 64 ae 61 ad ae 2e 31 a9
       -0.0157 0.089 -0.0635 -0.0514 -0.09985 -0.08405 0.1044 -0.04056
0001c0 95 ac 78 a0 a6 ae 78 25 8e 26 65 aa 09 2c ff a7
       -0.0716 -0.00873 -0.1039 0.02136 0.0256 -0.04996 0.06305 -0.03123
0001d0 5c b0 19 a5 20 2c b4 a6 3d 27 34 93 0c 22 4a 29
       -0.1362 -0.01991 0.06445 -0.02618 0.02827 -0.0008793 0.01181 0.04132
0001e0 30 b0 af 2b 9d 27 94 20 ea 25 f1 ad 73 a4 21 28
       -0.1309 0.06003 0.02974 0.00894 0.0231 -0.09283 -0.01738 0.03226
0001f0 40 2b 10 ad 91 a5 91 ac 74 2b 4a b0 7a 22 55 2b
       0.05664 -0.0791 -0.02174 -0.07135 0.05823 -0.134 0.01265 0.05728

weight f2 [8]
000000 b1 3b 99 3b 5c 3c cf 3b 16 3c ae 3b eb 3b b7 3b
       0.9614 0.9497 1.09 0.976 1.021 0.96 0.9897 0.9644

bias f2 [8]
000000 0e af 74 35 c7 3c cb 33 db b0 05 ba 28 3e 71 38
       -0.1102 0.3408 1.194 0.2435 -0.1517 -0.7524 1.539 0.555

running_mean f2 [8]
000000 f6 b8 73 3b 49 25 35 2e 05 ae 48 34 fb 38 a5 b1
       -0.62 0.931 0.02065 0.097 -0.09406 0.2676 0.6226 -0.1764

running_var f2 [8]
000000 58 37 44 37 ea 38 d6 33 15 36 5e 36 2d 38 08 3a
       0.459 0.454 0.6143 0.2449 0.3801 0.398 0.522 0.754
